trained_models/UNET.pt (torch, 306602 bytes, 6 tensors)

features.0.weight f4 [64, 3, 3, 3]
0	0x3dea27fc	0.11433408
1	0xbd2d564e	-0.042318635
2	0xbe130dea	-0.14360777
3	0x3dfc8b23	0.12331226
4	0x3d29cc9a	0.04145489
5	0xbe4c691b	-0.1996197
6	0xbd6afca4	-0.057369843
7	0x3e03507a	0.12823668
8	0xbe5a9d58	-0.21349084
9	0xbe0d3a69	-0.13791813
10	0x3daeda62	0.08537747
11	0xbd3ec087	-0.046570327
12	0xbdbe1833	-0.092819594
13	0x3b44efff	0.0030050275
14	0xbe2e0aa9	-0.16996254
15	0xbd99e7a6	-0.075148866
16	0xbd57ce3e	-0.052686922
17	0xbdb11753	-0.08647027
18	0x3e0a0165	0.13477094
19	0x3ddf5c60	0.10906291
20	0x3d23c5c3	0.039983522
21	0xbd5af6da	-0.053458072
22	0x3e56c428	0.20973265
23	0x3e3f9305	0.18708427
24	0x3e1ee462	0.15516809
25	0x3e20b1f5	0.15692885
26	0x3e328af2	0.17435816
27	0x3e6b9959	0.23007716
28	0x3adbe568	0.0016776742
29	0x3dd2f7c5	0.103011645
30	0xbcc25a49	-0.023724692
31	0x3df8aaf0	0.12141979
32	0x3df72253	0.12067094
33	0x3d32f32a	0.04368893
34	0x3e6f19aa	0.23349634
35	0x3d8450ea	0.06460746
36	0x3de31b47	0.11089187
37	0xbc0cb72b	-0.0085885925
38	0x3e57fce0	0.21092558
39	0x3e18b70c	0.14913577
40	0x3dec8e6a	0.11550601
41	0x3e503b54	0.20335132
42	0x3d79e4c0	0.06100917
43	0x3e135518	0.1438793
44	0xbcb814b9	-0.022470819
45	0x3d0324e1	0.032017592
46	0x3db0cfb1	0.08633364
47	0x3e4c0c15	0.19926484
48	0x3e22d48d	0.15901394
49	0xbd9b9c30	-0.0759815
50	0xbdb86e2b	-0.09005388
51	0x3e1bc974	0.15213567
52	0xbdb5f398	-0.088843524
53	0x3e7b0456	0.24513373
54	0x3e3f8c04	0.18705755
55	0xbe38c98e	-0.18045637
56	0xbdec13fc	-0.11527249
57	0x3df3daa4	0.11906937
58	0xbc77fea9	-0.015136399
59	0xbe28498f	-0.1643431
60	0x3e17aaaf	0.14811204
61	0xbdac6b5a	-0.08418913
62	0xbe2b3c7a	-0.16722289
63	0x3e45ea1a	0.19327584
64	0xbe34e302	-0.17664722
65	0xbd73429e	-0.059389703
66	0x3d8a8803	0.067642234
67	0xbc6cfe47	-0.014464921
68	0xbe50a335	-0.20374759
69	0x3d374344	0.044741884
70	0x3d8a2139	0.06744618
71	0xbda54155	-0.08069102
72	0x3e4d8628	0.20070708
73	0x3e22ad36	0.15886387
74	0x3dd62dc1	0.104579456
75	0xbded8d2f	-0.11599194
76	0xbdfefd55	-0.12450663
77	0x3e1f1ab4	0.1553753
78	0x3e06ce94	0.13164741
79	0xbd1d9289	-0.038469825
80	0x3e31281f	0.17300461
81	0x3e3d7752	0.18502548
82	0x3a2dbf4f	0.00066279335
83	0x3e3fe202	0.18738559
84	0xbd00a36d	-0.031405855
85	0x3dd97427	0.106178574
86	0x3e33845e	0.17530963
87	0x3d872b0c	0.066000074
88	0x3c07f24d	0.008297515
89	0xbdd1a98a	-0.10237415
90	0xbd2909a0	-0.041268945
91	0xbe0134b9	-0.12617768
92	0xbe1816a9	-0.14852394
93	0xbdcbb85b	-0.099472724
94	0x3c86a7f6	0.016437512
95	0xbde6516f	-0.11246001
96	0xbde27f41	-0.11059428
97	0xbdcf709c	-0.101289004
98	0xbe03c772	-0.12869051
99	0xbe24dccb	-0.16099851
100	0x3c856820	0.016285002
101	0x3e1bd00b	0.15216081
102	0x3e3b6847	0.18301497
103	0x3e446feb	0.19183318
104	0xbd2f9228	-0.042863995
105	0xbe47527e	-0.19465062
106	0xbd8eae6d	-0.06966863
107	0xbd5efd44	-0.05444075
108	0xbd62d99f	-0.05538332
109	0x3e0edf6c	0.13952416
110	0x3e8a8e83	0.27061853
111	0xbd00034c	-0.031253144
112	0x3e421144	0.18951899
113	0xbe092829	-0.13394226
114	0x3c5158de	0.012777535
115	0x3e0912b0	0.13386035
116	0x3d3bac4d	0.045818616
117	0x3e2430d5	0.16034253
118	0xbd959a9b	-0.07304879
119	0xbc352cd7	-0.011058054
120	0x3c085ad4	0.008322436
121	0x3e497d1d	0.19676633
122	0xbe07cb78	-0.13261211
123	0x3e2018b4	0.15634423
124	0x3e133763	0.14376597
125	0x3dca8608	0.09888846
126	0x3e257da3	0.16161208
127	0x3d4774fc	0.04869555
128	0x3de5b464	0.112160474
129	0x3d4ce394	0.050021723
130	0xbd99eeab	-0.075162254
131	0x3e3737e0	0.17892408
132	0xbdd7ba2f	-0.105335586
133	0xba30c7bd	-0.00067436305
134	0x3e38d87d	0.18051334
135	0xbdb0a1c5	-0.08624605
136	0xbd458e37	-0.04823133
137	0x3d5f3f74	0.054503873
138	0x3e230012	0.15917996
139	0x3dc4e130	0.096132636
140	0x3d2c4188	0.042054683
141	0x3e04fbe5	0.12986715
142	0x3bd381b9	0.006454673
143	0x3e0a7e21	0.13524677
144	0x3b723eaf	0.0036963632
145	0x3e18a75c	0.14907593
146	0xbd233aeb	-0.03985111
147	0x3bcb37c4	0.006201716
148	0xbe086fa5	-0.13323839
149	0x3e14bd70	0.1452539
150	0xbc745615	-0.014913102
151	0xbdfb02ec	-0.12256417
152	0x3e065b97	0.13120876
153	0x3dede489	0.11615855
154	0x3e79184b	0.24325673
155	0x3d80045c	0.062508315
156	0x3e3035b1	0.17207982
157	0x3d4e53b7	0.050372805
158	0x3e2a992a	0.1665999
159	0x3e052222	0.13001302
160	0x3df3b2f8	0.1189937
161	0x3e0c9d45	0.13731869
162	0x3db6da2f	0.08928334
163	0x3e23cc27	0.15995847
164	0xbd9cefad	-0.07662902
165	0x3ced5905	0.028973112
166	0xbe1ef624	-0.15523583
167	0xbd97cc2d	-0.0741199
168	0xbc16eb02	-0.009211304
169	0xbd70f8a7	-0.058830883
170	0x3de9f992	0.11424555
171	0xbdb5b5b8	-0.08872551
172	0xbcaa7b96	-0.020810883
173	0xbe0c1ff4	-0.13684064
174	0xbe3e8c70	-0.1860826
175	0xbdff7e21	-0.12475229
176	0xbe2eb731	-0.1706207
177	0x3e0bf1cf	0.13666461
178	0xbd2b5845	-0.041832227
179	0x3e0c1840	0.13681126
180	0x3c04db0f	0.008108868
181	0xbe1485ad	-0.14504118
182	0xbe0ad7ce	-0.13558885
183	0x3d1f5df2	0.038907953
184	0xbe358665	-0.17727049
185	0xbd9f673b	-0.077833615
186	0x3d30e6d7	0.043188896
187	0x3d39d759	0.045371387
188	0x3d31e071	0.043426935
189	0xbd8085c9	-0.062755175
190	0xbde2e282	-0.11078359
191	0x3d3edc27	0.046596672
192	0x3d1199af	0.035546955
193	0xbda614dd	-0.08109448
194	0x3db46503	0.08808329
195	0xbd0950ed	-0.033524442
196	0x3e572579	0.21010388
197	0xbd12f87c	-0.035881504
198	0xbdbfdddb	-0.093684874
199	0xbd429c61	-0.047512416
200	0xbded921a	-0.11600132
201	0x3dcb5604	0.099285156
202	0x3c2e785e	0.010648815
203	0x3deb65f9	0.11494059
204	0xbe1245c2	-0.14284423
205	0x3dc0d1c1	0.094150074
206	0x3e3f9e1e	0.1871266
207	0xbe2c4440	-0.1682291
208	0x3d028092	0.031860895
209	0xbdb6c93c	-0.08925101
210	0xbda291a5	-0.07937936
211	0xbe1a3c9e	-0.15062186
212	0xbcc4b529	-0.024012165
213	0x3d4205d3	0.047368836
214	0x3e38e49f	0.18055962
215	0xbe044bd5	-0.12919553
216	0x3dd0b213	0.10190215
217	0x3dd4ee4d	0.10397015
218	0xbe22c9f4	-0.15897352
219	0xbd8293ce	-0.06375848
220	0x3e3ce2e1	0.18445922
221	0x3d4d2a93	0.05008943
222	0xbe057f2a	-0.1303679
223	0xbe10cdff	-0.14141081
224	0xbdd8d454	-0.105873734
225	0xbc03ed38	-0.008052163
226	0xbde01589	-0.109416075
227	0xbe0cb3de	-0.13740489
228	0x3e28ba8e	0.16477415
229	0x3d9d5dae	0.076838836
230	0x3d3cf401	0.046131138
231	0xbd99d9f5	-0.07512275
232	0xbd8995ee	-0.0671805
233	0x3d01746c	0.03160517
234	0x3e48e85e	0.19619891
235	0x3e253748	0.1613437
236	0xbdd9aea6	-0.10629015
237	0xbd82e025	-0.063904084
238	0xbde9c642	-0.11414768
239	0x3e50b4e6	0.20381507
240	0x3e3a005c	0.181642
241	0x3e6b512e	0.22980186
242	0xbdb7b62a	-0.08970292
243	0x3d1c605e	0.03817784
244	0xbda655d6	-0.08121841
245	0xbdd3e21c	-0.10345861
246	0xbdae72b0	-0.08517969
247	0xbe35493c	-0.17703718
248	0xbd4077ad	-0.04698913
249	0x3ce55a7d	0.02799725
250	0x3d6b882e	0.057502918
251	0x3e1a563a	0.15071955
252	0xbd0401a8	-0.032228142
253	0x3e08cee7	0.13360177
254	0xbe000106	-0.1250039
255	0xbe052c74	-0.13005239

features.0.bias f4 [64]
0	0x3d794f3b	0.060866576
1	0xbd6880a0	-0.05676329
2	0x3e7f6b7b	0.24943344
3	0xbdb52f8f	-0.08846962
4	0x3cefd0ac	0.029274307
5	0x3e5acffa	0.213684
6	0x3dccc654	0.099987656
7	0xbd057616	-0.03258332
8	0x3e6369e9	0.2220837
9	0xbcb76269	-0.022385793
10	0xbdd49eab	-0.10381826
11	0x3e452644	0.19252878
12	0xbaf23791	-0.0018479695
13	0xbe19e5f3	-0.15029125
14	0xbd81d3f0	-0.06339252
15	0x3e84d6da	0.2594517
16	0xbc1f21f4	-0.009712685
17	0x3dae6923	0.08516147
18	0xbd56eab1	-0.052469913
19	0xbde001b2	-0.10937823
20	0x3df2f88e	0.11863814
21	0x3e4d6fab	0.20062129
22	0x3d2243e8	0.03961554
23	0xbd101304	-0.035174385
24	0x3de74d1b	0.112940036
25	0xbd82f3c3	-0.0639415
26	0x3d463f1b	0.048400026
27	0x3d2efecb	0.04272346
28	0xbd04b89e	-0.032402627
29	0x3da448c4	0.080216914
30	0x3e2f9ac2	0.17148879
31	0xbe3ddf64	-0.18542248
32	0x3c11fd8f	0.008910551
33	0x3cf653ac	0.030069195
34	0xbc60ffea	-0.01373289
35	0x3e16d44e	0.14729425
36	0xbd3160b2	-0.043305106
37	0x3dff69e1	0.12471367
38	0x3e455299	0.1926979
39	0xbdda7295	-0.10666386
40	0x3e444003	0.19165044
41	0x3ce883f0	0.028383225
42	0x3d47222d	0.048616577
43	0x3e3299f3	0.1744154
44	0xbc5fbece	-0.013656331
45	0x3e360306	0.17774591
46	0xbdbb03da	-0.09131594
47	0xbcd28980	-0.02570033
48	0xbe471129	-0.1944014
49	0x3ea6a3df	0.325469
50	0x3dd8038a	0.1054755
51	0xbdd48652	-0.10377182
52	0x3e77f230	0.24213481
53	0x3d98c651	0.07459701
54	0xbe041a40	-0.12900639
55	0xbe2cbba0	-0.16868448
56	0x3e242f2e	0.16033623
57	0x3d88a097	0.06671255
58	0xbc922c43	-0.017843371
59	0x3c87ba85	0.016568432
60	0xbd16393f	-0.036675688
61	0xbaf6fc13	-0.0018843435
62	0xbdc6c178	-0.0970487
63	0x3d8f200a	0.06988533

features.3.weight f4 [128, 64, 3, 3]
0	0xbc4ab155	-0.012371381
1	0xbce57655	-0.028010527
2	0xbd721941	-0.059106115
3	0x3c34b4cc	0.011029433
4	0xbbd7d6d9	-0.006586891
5	0xbd14b0e7	-0.03630152
6	0xbd2b3b59	-0.041804645
7	0xbc06f821	-0.0082378695
8	0xbd68a5cc	-0.05679874
9	0xbdc589b7	-0.09645408
10	0xbcc6b6aa	-0.024257023
11	0xbda38718	-0.079847515
12	0xbd13faab	-0.036127727
13	0xbd522b60	-0.051310897
14	0xbd8c0cde	-0.06838392
15	0xbde72cd8	-0.1128785
16	0xbd37e7cb	-0.04489879
17	0xbde4a770	-0.11164749
18	0x3d066529	0.032811318
19	0x3bf9843e	0.0076146415
20	0x3d1f1075	0.038834054
21	0x3c92da91	0.017926486
22	0x3d7ad6c0	0.061239958
23	0x3d376a89	0.044779334
24	0x3d2ccc94	0.04218729
25	0x3c53ea7e	0.012934325
26	0x3cedab6b	0.029012403
27	0x3ce8efac	0.028434597
28	0x3ccedf67	0.02525301
29	0x3b59742f	0.0033180823
30	0xbb9481a7	-0.0045320573
31	0x3c0b29bc	0.008493837
32	0x3cb346cb	0.021884343
33	0x3d0e611b	0.034760576
34	0x3ce5f9fa	0.0280733
35	0xbc8a457b	-0.016878834
36	0xbcca665f	-0.024707017
37	0xbd112a85	-0.03544094
38	0xbd87456a	-0.066050366
39	0xbd4cbd00	-0.049984932
40	0xbcabe1db	-0.02098172
41	0x399f7977	0.00030417342
42	0xbda26390	-0.07929146
43	0xbd9592a4	-0.0730336
44	0xbd2482a8	-0.040163666
45	0xbd944ea6	-0.072415635
46	0x3cb389b3	0.021916246
47	0xbc50254c	-0.012704205
48	0x3c943d9c	0.018095784
49	0xbc3fe9e8	-0.011713482
50	0x3ca354d2	0.019937906
51	0xbc934b2c	-0.01798018
52	0x3c7a74bd	0.015286622
53	0xbd29c2fa	-0.04144571
54	0xbc764c49	-0.015032836
55	0x3d2316cc	0.039816663
56	0xbc8fa155	-0.017532984
57	0xb97bbe69	-0.00024008159
58	0x3c7b1da8	0.015326895
59	0x3cac80ef	0.021057574
60	0x3bc656c8	0.0060528256
61	0xbc76e68a	-0.015069613
62	0x3c164f2c	0.0091741495
63	0x3b42b478	0.0029709619
64	0xbb2e30fc	-0.002657949
65	0x3ca8c8b2	0.020603511
66	0x3cbf6ac6	0.023366343
67	0xbcb44b98	-0.022008702
68	0xbba9b65c	-0.0051792096
69	0x3acc92d2	0.0015607721
70	0x3c48fb9e	0.012267021
71	0x3d4ccc2d	0.049999405
72	0xbcbaecdc	-0.022818021
73	0xbc877ff6	-0.016540509
74	0x3d41cd1a	0.04731474
75	0x3c4b8e05	0.012423997
76	0xbc1bfccf	-0.0095207235
77	0x3c3ad9cb	0.011404465
78	0xbc81583e	-0.015789147
79	0x3c0b77e4	0.008512471
80	0xbc47cd17	-0.012194893
81	0x3b4170fc	0.0029516807
82	0x3b9079d3	0.004409054
83	0x3d22cca3	0.039745938
84	0x3ca9840e	0.020692851
85	0x3b68e900	0.003553927
86	0x3d04e92b	0.03244893
87	0x3d2aac70	0.041668355
88	0xbcbe6f93	-0.023246562
89	0xbcf42b5b	-0.02980583
90	0xbd9b8452	-0.075935975
91	0xbd8600f8	-0.065431535
92	0xbd4d94bb	-0.05019067
93	0xbd172a5b	-0.036905628
94	0xbcc50d98	-0.024054334
95	0xbd894975	-0.06703464
96	0xbd8d79e5	-0.06908015
97	0xbdbfb269	-0.09360201
98	0xbd71e1f0	-0.05905336
99	0x3d135c2e	0.03597658
100	0x3cb398bb	0.021923414
101	0x3d1a94c5	0.037739534
102	0x3db90688	0.09034449
103	0x3d038ab7	0.03211471
104	0x3c497eaa	0.0122982655
105	0x3d8c851e	0.068613276
106	0x3d238a88	0.039927036
107	0x3cd20672	0.025637839
108	0x3c467faf	0.012115403
109	0x3c71ead0	0.014765456
110	0xbb863b77	-0.004096444
111	0x3d6f0a27	0.05835929
112	0x3b9902fd	0.0046695457
113	0xbb045acb	-0.0020195718
114	0x3d46b4be	0.048512213
115	0x3c38457c	0.011247035
116	0x3bcd22e2	0.006260262
117	0x3c924acc	0.017857932
118	0x3be55cb3	0.006999576
119	0x3c5d8940	0.0135214925
120	0xbca6a4a9	-0.020342188
121	0x3c72aee4	0.014812205
122	0xbcc15e18	-0.023604438
123	0x3c075f8a	0.008262524
124	0xbb64f695	-0.0034937013
125	0x3d1863e4	0.037204638
126	0x3d064597	0.03278121
127	0x3d672f3b	0.056441527
128	0x3e09c453	0.13453798
129	0x3df0fb1e	0.11766647
130	0x3dbce48e	0.09223281
131	0x3e0be1c6	0.13660344
132	0x3da8b087	0.08236795
133	0x3e13b3ab	0.14424007
134	0x3dcd61e0	0.10028434
135	0x3d2c9703	0.042136203
136	0x3d88d52d	0.06681285
137	0x3d207ac0	0.039179564
138	0x3db5bad2	0.08873524
139	0x3d38023f	0.044924017
140	0x3da8058f	0.08204185
141	0x3cde69b7	0.027150018
142	0x3d0044b2	0.031315513
143	0x3d04e565	0.03244533
144	0x3c84a30b	0.016191026
145	0x3d41d41e	0.04732143
146	0x3cd27394	0.025689878
147	0xbcee8e1f	-0.029120503
148	0xbd11f876	-0.03563734
149	0x3cd24ce2	0.025671426
150	0x3cdd4155	0.027008692
151	0x3d14e189	0.0363479
152	0xbcc8f6c1	-0.024531724
153	0xbda55285	-0.0807238
154	0xbaa52fdf	-0.0012602768
155	0xbc8a71ed	-0.016900027
156	0xbd0ddd4d	-0.034634877
157	0xbd4e941f	-0.050434228
158	0x3b950b9e	0.004548504
159	0xbd0ac863	-0.03388251
160	0xbd481535	-0.04884835
161	0xbd7e742d	-0.062122513
162	0xbd5a97d2	-0.053367443
163	0xbb49cac0	-0.0030791014
164	0xbd6cde54	-0.057829216
165	0xbc2cad44	-0.010539357
166	0x3ba0a97d	0.004903017
167	0xbd8d33a8	-0.06894618
168	0xbdd69855	-0.10478274
169	0xbca26bac	-0.019826733
170	0xbdbba4c0	-0.09162283
171	0x3e3d50b8	0.18487823
172	0x3e3e8cdf	0.18608426
173	0x3e189c9b	0.1490349
174	0x3de152da	0.11002131
175	0x3e2baafd	0.16764446
176	0x3dd8165d	0.105511405
177	0x3e1aac00	0.15104675
178	0x3e0fa184	0.14026457
179	0x3e173674	0.14766866
180	0x3cfea950	0.031086594
181	0xbc652468	-0.013985731
182	0x3cc5a196	0.024124902
183	0xbd3a1185	-0.045426864
184	0xbbc71fff	-0.0060768123
185	0xbd1746f9	-0.03693292
186	0xbd1d3882	-0.03838397
187	0x3c5d5d98	0.013511084
188	0xbceb73bf	-0.028741715
189	0x3d3a99e6	0.045556925
190	0x3ccd3c6c	0.025053225
191	0x3d5687d8	0.052375644
192	0x3d86335c	0.06552765
193	0x3dca21bf	0.09869718
194	0x3daad29a	0.0834095
195	0x3d53f08e	0.051743083
196	0x3d26a135	0.040681083
197	0x3d4a1b0d	0.049342204
198	0x3d7f68fd	0.062355984
199	0x3e0dca81	0.1384678
200	0x3de06436	0.10956614
201	0x3db1bf9a	0.08679123
202	0x3ddbe18a	0.107363775
203	0x3db45171	0.08804596
204	0x3d315d02	0.04330159
205	0x3d8bfa41	0.068348415
206	0x3d916581	0.070994385
207	0xbd2ab689	-0.041677985
208	0xbda550e3	-0.080720685
209	0xbddfd3d0	-0.10929072
210	0xbdc946de	-0.0982797
211	0xbd0e662b	-0.034765404
212	0xbcd1278a	-0.025531549
213	0xbe053030	-0.13006663
214	0xbd8c980a	-0.06864937
215	0xbdb56b79	-0.088583894
216	0x3dc0fc7e	0.09423159
217	0x3dc9e614	0.09858337
218	0x3d83662b	0.06415971
219	0x3dd4a99f	0.10383915
220	0x3db25392	0.08707346
221	0x3dd47173	0.10373201
222	0x3ddfeb09	0.10933501
223	0x3d9f361e	0.07773994
224	0x3d177a1f	0.036981698
225	0x3c1c8d2e	0.009555144
226	0xbcbba190	-0.022904187
227	0x3ccec6af	0.025241224
228	0x3c8e5a1a	0.017376948
229	0x3bd5c317	0.0065235007
230	0xbd000d92	-0.03126294
231	0xbc83f6f0	-0.01610896
232	0x3ce21ffe	0.027603146
233	0x3d1fa1d1	0.03897268
234	0x3dd1eba5	0.10250024
235	0x3df37425	0.11887387
236	0x3e09bf8b	0.13451974
237	0x3e0bee40	0.13665104
238	0x3de84324	0.11340931
239	0x3ddc1c5d	0.10747597
240	0x3dee9791	0.11650003
241	0x3d8c4892	0.06849779
242	0x3dc6f93e	0.09715508
243	0xbd74cadb	-0.05976377
244	0x3bbc96cb	0.0057552806
245	0xbcba2f5a	-0.022727657
246	0xbce8bb81	-0.028409721
247	0x3cc9e10d	0.024643445
248	0xbcfc6c68	-0.03081341
249	0xbd982097	-0.07428091
250	0xbd93b998	-0.072131336
251	0xbc47e758	-0.012201153
252	0x3e062797	0.1310104
253	0x3da68994	0.0813171
254	0x3d3ea3e3	0.046543013
255	0x3e1ca0e0	0.15295744

features.3.bias f4 [128]
0	0xbc4b8d92	-0.01242389
1	0xbc3c0961	-0.0114768455
2	0xbd0285ab	-0.031865757
3	0x3d3441fb	0.044008236
4	0xbd9c9062	-0.07644726
5	0x3ad2536c	0.001604659
6	0xbd13875e	-0.036017768
7	0x3d8a18fc	0.06743047
8	0xbccab65f	-0.024745164
9	0xb9ee2b7a	-0.0004542729
10	0x3d793d84	0.06084968
11	0x3cf8eb64	0.03038568
12	0xbc9ae1c8	-0.018906489
13	0x3c29f715	0.01037385
14	0x3cc3cb60	0.023900688
15	0xbc58cb99	-0.013232135
16	0xbd3d0988	-0.046151668
17	0x3affcc08	0.0019515762
18	0x3d745af1	0.05965704
19	0xb78dcdf4	-1.6904414e-05
20	0x3d61f5a6	0.05516591
21	0x3cea0139	0.028565036
22	0xbd3965f9	-0.045263264
23	0x3cb406c6	0.021975886
24	0xbd550872	-0.052010007
25	0xbc52102d	-0.012821239
26	0x3b1f40b1	0.0024300034
27	0xbcc49118	-0.023994967
28	0xbd45499e	-0.04816591
29	0xbb9027dd	-0.0043992833
30	0xbdc32548	-0.09528595
31	0x3d6d8449	0.057987485
32	0xbd0e8c3e	-0.034801714
33	0xbc48839c	-0.012238409
34	0xbcf8d215	-0.030373612
35	0xbcfa3f80	-0.030547857
36	0x3df58586	0.11988358
37	0x3c1b3d23	0.009475025
38	0x3d59b598	0.053151697
39	0x3dbbdb86	0.0917273
40	0xbc7e2de4	-0.015513871
41	0xbd0f245f	-0.034946796
42	0x3d7f33e9	0.062305365
43	0xbccf18f3	-0.025280451
44	0x3c6c94f4	0.01443981
45	0xbbcae917	-0.0061923373
46	0xbd384cc1	-0.044995073
47	0x3d91b529	0.07114632
48	0x3daf07fe	0.08546446
49	0xbc9e3b46	-0.019315373
50	0xbcfc3846	-0.030788552
51	0xbd2adda0	-0.041715264
52	0xbd15377d	-0.03642987
53	0x3d555dc9	0.052091394
54	0x3d53e9d0	0.051736653
55	0x3ca6791f	0.020321427
56	0x3d365427	0.044513848
57	0xbb9af3cc	-0.00472877
58	0x3c559040	0.01303488
59	0x3e02094e	0.12698862
60	0x3c8bd157	0.017067594
61	0x3e0076c1	0.12545301
62	0x3b8a592c	0.004222056
63	0xbbb5c656	-0.005547325
64	0xbc3712ab	-0.011173884
65	0x3ccb6855	0.024830023
66	0x3d3d211a	0.046174146
67	0x3e02d2e9	0.12775768
68	0x3dfc1607	0.12308889
69	0x3d993bab	0.07482084
70	0x3d17c1ba	0.037049986
71	0x3c8c5c15	0.017133752
72	0x3d57b104	0.05265905
73	0xbc946d66	-0.018118571
74	0x3d14ee6b	0.036360186
75	0xbb1ed844	-0.002423779
76	0x3d52b7ed	0.051444937
77	0x3d2dd390	0.04243809
78	0xbc2950d6	-0.010334214
79	0x3cf6721e	0.030083712
80	0x3c5c38dc	0.013441291
81	0xbd26ebe1	-0.040752295
82	0xbd8076cc	-0.06272659
83	0xbd56cd7a	-0.05244205
84	0x3dd1f76f	0.10252272
85	0x3d0b1cae	0.033962898
86	0xbd2fe11c	-0.04293929
87	0xbc34aca6	-0.011027491
88	0xbd20baa7	-0.039240506
89	0x3da95e29	0.08269913
90	0x3d5d03c8	0.053958684
91	0x3e162a1a	0.14664498
92	0x3d37e5c2	0.04489685
93	0xbcedbc78	-0.029020533
94	0x3cf5cd97	0.03000526
95	0xbd163820	-0.03667462
96	0xbc77c9bd	-0.015123782
97	0xbd13a40e	-0.036045127
98	0xbcee350b	-0.029078027
99	0x3c967008	0.018363968
100	0x3d8f92a0	0.070103884
101	0xba97ea1d	-0.0011590157
102	0xbd3bc372	-0.045840688
103	0xbb967311	-0.0045913537
104	0x3c499470	0.012303457
105	0x3d839930	0.064257026
106	0x3cff6b58	0.031179115
107	0xbd433380	-0.047656536
108	0x3d881b4b	0.06645831
109	0x3d596219	0.05307207
110	0x3b71a2f5	0.0036870812
111	0xbd4ca431	-0.049961273
112	0x3db82dfc	0.08993146
113	0x3c4112bd	0.011784253
114	0xbc9f8675	-0.019473294
115	0x3ca5182c	0.020153128
116	0x3d78dd34	0.06075783
117	0xbcdf7062	-0.027275268
118	0x3dc341cb	0.095340334
119	0xb8977d36	-7.2235634e-05
120	0xbcfee05b	-0.03111284
121	0x3cd1041c	0.025514655
122	0x3dc98837	0.09840434
123	0x3cbe05d3	0.023196137
124	0x3d7a8ba4	0.061168328
125	0x3e195c54	0.14976627
126	0x3e00b4de	0.12568995
127	0x3dbe5b94	0.09294811

fc.weight f4 [3, 128]
0	0x3d4369e7	0.04770842
1	0x3cfa1974	0.030529715
2	0x3dcc22e6	0.09967594
3	0xbe219137	-0.15778051
4	0x3db773d8	0.08957642
5	0x3c912d51	0.017721804
6	0x3da7c44e	0.08191739
7	0x39f724ba	0.00047138875
8	0xbcc742ae	-0.024323788
9	0xbcf4c74a	-0.029880185
10	0xbe38d8c9	-0.18051447
11	0xbdf6f3c8	-0.12058216
12	0x3d564e12	0.052320547
13	0xbdc6bb9b	-0.09703752
14	0xbc240f05	-0.010013347
15	0x3e3f7ef3	0.18700771
16	0x3df5cd78	0.12002081
17	0x3dc5fa3f	0.09666871
18	0xbe04d438	-0.1297158
19	0xbdb63bcd	-0.08898125
20	0xbd8fc2bd	-0.07019565
21	0xbd427dae	-0.04748314
22	0x3d9f6d1b	0.07784482
23	0xbcc2bab6	-0.023770671
24	0x3d18c719	0.03729925
25	0x3d26b97f	0.040704247
26	0xbd028ded	-0.031873632
27	0x3d2c2451	0.04202682
28	0x3d9c673d	0.07636879
29	0x3d0fa1d1	0.03506643
30	0x3e0b0329	0.13575424
31	0xbda88e36	-0.082302496
32	0x3def0f19	0.116728015
33	0x3d2d845e	0.042362563
34	0x3c7a718f	0.015285864
35	0x3d319c3e	0.043361895
36	0xbde498ab	-0.111619316
37	0xbdd0a779	-0.10188193
38	0xbb86bfb9	-0.0041122106
39	0xbd01cde1	-0.031690482
40	0x3d1fc086	0.039001964
41	0x3dd1e307	0.1024838
42	0xbdfeb058	-0.12435979
43	0x3d61b216	0.055101477
44	0xbd679d75	-0.056546647
45	0x3d2d745d	0.0423473
46	0x3d9610e3	0.0732744
47	0xbddfab8e	-0.10921393
48	0xbe345549	-0.17610659
49	0xbcfa5abf	-0.03056085
50	0x3d89d693	0.0673038
51	0x3cdaf27f	0.02672696
52	0x3d92cb93	0.07167735
53	0xbdd184b6	-0.10230391
54	0xbd0bb0da	-0.034104206
55	0x3c4ed93b	0.012625034
56	0xbe06bf1a	-0.13158837
57	0x3d3c5de3	0.045987975
58	0x3d92a347	0.07160049
59	0xbe3c6c91	-0.1840079
60	0x3cb0a77c	0.021564238
61	0xbe17ae21	-0.14812519
62	0xbcbc854c	-0.02301278
63	0x3d2439f2	0.040094323
64	0x3dab189d	0.08354304
65	0xbd5c7969	-0.053826723
66	0xbda323ee	-0.079658374
67	0xbe612ee2	-0.2199054
68	0xbe599f71	-0.21252228
69	0xbdb9fe7f	-0.090817444
70	0x3dacb591	0.084330685
71	0xbd851069	-0.064972706
72	0xbe006f5b	-0.12542479
73	0x3d5ff25a	0.054674484
74	0x3dab4664	0.08363035
75	0xbdabd49c	-0.083901614
76	0xbd507469	-0.050892267
77	0xbc5c4185	-0.013443355
78	0xbd6f0cd0	-0.05836183
79	0xbdb352b6	-0.0875601
80	0x3df6ba33	0.120472334
81	0x3dc3e589	0.09565265
82	0x3e32be72	0.17455462
83	0x3e0a7ec6	0.13524923
84	0xbd78b347	-0.060717847
85	0xbdb26669	-0.087109394
86	0x3ca50198	0.020142362
87	0xbcb45531	-0.022013279
88	0x3cf31aa0	0.029675782
89	0xbe05e280	-0.13074684
90	0xbdc5852f	-0.096445434
91	0xbe06fc0d	-0.13182087
92	0xbddbf6f8	-0.10740465
93	0x3d2f2219	0.042757127
94	0xbdf69d95	-0.12041775
95	0x3d7f22e8	0.06228915
96	0x3dff4a5c	0.12465355
97	0x387118c3	5.748194e-05
98	0xb8c0369e	-9.165447e-05
99	0xbcd8aa96	-0.02644853
100	0xbd3b9234	-0.045793727
101	0x3dfd3094	0.12362781
102	0xba773d1e	-0.00094314094
103	0xbcd5decc	-0.026107214
104	0xbd4d04be	-0.05005335
105	0xbdf903c2	-0.1215892
106	0x3de09eac	0.10967764
107	0x3dec60c3	0.11541893
108	0xbdd34d9b	-0.103175364
109	0xbdabd692	-0.083905354
110	0xbca86ad2	-0.020558748
111	0x3e934fa3	0.28771695
112	0xbd44e5da	-0.048070766
113	0xbd9e64c6	-0.07734065
114	0x3e1254d1	0.14290167
115	0xbdc8e5b6	-0.09809439
116	0xbe18697d	-0.1488399
117	0x3dbe13f5	0.0928115
118	0xbe202a38	-0.15641105
119	0x3d61c8cc	0.055123135
120	0xbd99ac5f	-0.0750358
121	0x3d2737da	0.04082475
122	0xbe06a340	-0.13148212
123	0xbdabbf3d	-0.08386085
124	0xbe4406da	-0.19143239
125	0xbe4f78b3	-0.20260887
126	0xbe000bdd	-0.12504525
127	0xbde16354	-0.110052735
128	0xbd2dd75c	-0.04244171
129	0xbe065d50	-0.13121533
130	0xbbda3bca	-0.0066599594
131	0x3e16d730	0.14730525
132	0xbd80cd7e	-0.062891945
133	0x3ca71585	0.020396003
134	0x3d3e29f2	0.04642672
135	0x3ca2795a	0.019833256
136	0xbd90d99f	-0.07072758
137	0xbe1a250d	-0.15053196
138	0x3e126d5a	0.14299527
139	0xbcd76b6d	-0.026296342
140	0x39ab7f30	0.00032710424
141	0xbdfd783b	-0.12376448
142	0xbcaa0c67	-0.020757867
143	0xbdbd9c29	-0.09258301
144	0xbb766f24	-0.0037602866
145	0xbd888afc	-0.06667134
146	0x3e153f6e	0.14574978
147	0xbda432fc	-0.08017537
148	0xbdb50ee8	-0.08840734
149	0xbd8b3ad9	-0.06798334
150	0xbe16e4bb	-0.14735691
151	0xbd29666e	-0.04135745
152	0xbe0295d0	-0.12752461
153	0x3bb1e4e1	0.005428896
154	0xbd869b02	-0.06572534
155	0xbd82157c	-0.06351754
156	0x3d67a257	0.056551304
157	0xbe0a9776	-0.1353434
158	0xbe0f6ca9	-0.14006294
159	0x3c217122	0.009853633
160	0x3d19d7a9	0.037559185
161	0xbd862bdd	-0.06551335
162	0x3cc9de1a	0.02464204
163	0xbb21fabf	-0.0024716107
164	0x3de90f73	0.113799
165	0xbd8c1d80	-0.06841564
166	0x3dd2fa02	0.103015915
167	0x3e43ea71	0.19132401
168	0xbd93e077	-0.07220548
169	0x3d3de48f	0.04636055
170	0xbca2549e	-0.01981574
171	0x3d1f46a0	0.038885713
172	0x3da7ef34	0.08199921
173	0xbd72dd0c	-0.059292838
174	0x3d50410e	0.05084329
175	0xbd36edb1	-0.044660274
176	0x3de82dd0	0.11336863
177	0xbd1f7c92	-0.03893716
178	0x3d0cb479	0.0343518
179	0x3da58e52	0.08083786
180	0x3dca7f47	0.098875575
181	0xbdb5354a	-0.08848055
182	0x3c9c7e27	0.019103123
183	0xbd9e58c3	-0.07731774
184	0x3d132017	0.035919275
185	0xbda946dc	-0.082654685
186	0xbc62ce10	-0.013843074
187	0x3de7f6f5	0.113264
188	0xbd4a14c4	-0.04933621
189	0x3e1c946d	0.15290995
190	0xbcaf6c94	-0.021414079
191	0xbd84ba89	-0.06480891
192	0xbd4793a4	-0.048724785
193	0x3c2b1ac8	0.010443397
194	0x3ca8d181	0.020607712
195	0x3e1865c5	0.14882572
196	0x3e369e3a	0.17833796
197	0x3e28fa1b	0.16501658
198	0x3b5a530e	0.0033313665
199	0x3c88581d	0.016643578
200	0x3dcb1849	0.099167414
201	0xbdaf294a	-0.08552797
202	0x3c16d0a5	0.009205018
203	0xbd9d7201	-0.0768776
204	0xbd07c9cc	-0.033151433
205	0x3dea420b	0.11438378
206	0xbd305f5f	-0.043059703
207	0x3daaac42	0.08333637
208	0x3d44629b	0.0479456
209	0x3de7a5e1	0.11310936
210	0xbe34ed4e	-0.1766865
211	0xbdabb363	-0.08383825
212	0x3dcb7713	0.09934821
213	0xbd4870a9	-0.048935566
214	0x3c58ff15	0.01324441
215	0xbd1ab334	-0.037768558
216	0xbd7d5a84	-0.0618539
217	0xba56482a	-0.00081742054
218	0x3d5fee3f	0.05467057
219	0x3e19c459	0.15016307
220	0x3e13c264	0.14429623
221	0x3d06a479	0.032871697
222	0x3d8f2e59	0.06991262
223	0xbd579630	-0.052633464
224	0x3ddc8956	0.10768382
225	0xbd627522	-0.055287488
226	0xbe2cea27	-0.16886197
227	0xbe1945f4	-0.14968091
228	0x3ddb5b9c	0.107108325
229	0x3d25218b	0.040315192
230	0xbd49ecad	-0.049297977
231	0x3c4603d8	0.012085877
232	0xbdef73f9	-0.11692042
233	0x3cfdd930	0.030987352
234	0xbc50ec71	-0.0127516845
235	0xbe25d62b	-0.1619498
236	0x3b93b9e8	0.0045082457
237	0x3de65134	0.11245957
238	0xbd20298e	-0.03910213
239	0xbe064156	-0.13110861
240	0x3e28428d	0.16431637
241	0x3cff40dc	0.031158857
242	0xbe00c5fe	-0.12575528
243	0xbd68557c	-0.05672215
244	0x3daef940	0.085436344
245	0xbcda011e	-0.02661186
246	0x3d9cda24	0.076587945
247	0xbc0b2033	-0.008491564
248	0xbe0527c4	-0.1300345
249	0xbd92bd52	-0.07165016
250	0x3e08fed5	0.1337846
251	0xbe0d5faf	-0.13806032
252	0x3dcc63c9	0.0997997
253	0x3d67778e	0.0565105
254	0x3e1a967d	0.15096469
255	0xbb5b0319	-0.0033418594

fc.bias f4 [3]
0	0xbd8b1285	-0.06790642
1	0x3ba83628	0.005133409
2	0xbdad5755	-0.08463923
