checkpoints/CustomCNN_best.pt (torch, 512410 bytes, 10 tensors)

features.0.weight f4 [32, 3, 3, 3]
000000 1a f6 20 3e 33 76 ad bb 02 03 c7 3d 5a 9e 09 3b
       0.1571888 -0.0052936315 0.097173706 0.0020998926
000010 7b 36 04 be 02 89 2a bd fb 67 30 3e 5f eb 89 bd
       -0.12911408 -0.041634567 0.17227165 -0.067343466
000020 af 73 08 3e 20 2e 5b 3c 61 08 83 3d a6 b1 c2 bd
       0.1332538 0.013377696 0.063980825 -0.0950654
000030 3c 07 d6 3d 89 b6 8b bd 3d 76 f3 3d 49 df 67 3e
       0.104505986 -0.06821925 0.118877865 0.2264377
000040 4a f3 02 3e fa 6a 04 3e 59 0c 99 3d 93 79 4a 3e
       0.1278812 0.12931433 0.07473058 0.1977294
000050 94 a3 e0 bd 58 45 0b be f4 32 27 3e 96 73 21 3e
       -0.109687 -0.13600671 0.16328031 0.15766749
000060 c5 28 6c bd 4f cf c4 3d 34 50 00 3e 46 70 90 3d
       -0.05765607 0.096098535 0.12530595 0.070526645
000070 d6 7f 17 be 9e fc a3 3d b9 ce 7e 3d ff 11 d6 3d
       -0.1479486 0.08007167 0.062208865 0.10452651
000080 53 ea 23 be 3a 16 1e be 41 d4 ff bb b7 6b 44 3d
       -0.16007356 -0.15438166 -0.007807285 0.047954287
000090 0c 23 24 3e 75 d9 02 3e a2 12 30 be 24 bc 01 3e
       0.16028994 0.12778266 -0.17194608 0.12669426
0000a0 de f3 c4 3d 7f 75 1c be 37 1e 09 3d dc 5b 8d bc
       0.096168265 -0.15279196 0.03347608 -0.017255716
0000b0 a4 69 39 be d6 f2 9e 3d 83 a5 12 3e ba 0c 30 bc
       -0.18106705 0.07761161 0.1432095 -0.010745222
0000c0 f8 82 2e be 1b 46 1b be 23 f0 04 3e ed 88 01 3e
       -0.17042148 -0.15163462 0.1298223 0.1264989
0000d0 55 b2 11 bc 1e cc 0e 3d 25 a9 40 be fc 37 d1 3c
       -0.008892615 0.03486263 -0.18814524 0.02553939
0000e0 b1 f7 a0 bd 40 9a 79 3d 19 d1 4c 3c 2d 7c 84 bd
       -0.078597434 0.06093812 0.012501025 -0.06468997
0000f0 c1 85 8b bc 27 90 00 3e b6 12 05 3e 26 de 37 3b
       -0.017031552 0.1255499 0.12995419 0.0028055995
000100 6c f0 3a be a7 19 04 bc 80 18 15 be 12 bc a3 3d
       -0.18255776 -0.008062757 -0.14560127 0.07994856
000110 2d 60 d9 bd a5 87 ef 3d f5 b1 2e be 5e 48 2e be
       -0.10614047 0.11695794 -0.17060073 -0.17019793
000120 3b d6 03 be 5f 22 25 bd d8 8f 09 3e 9a 8a e1 bd
       -0.12874691 -0.040315982 0.13433778 -0.11012764
000130 20 ef 0c bd 27 d1 dd bd 0c 28 87 3d 87 fb 0d 3e
       -0.034407735 -0.10830908 0.06599435 0.13865481
000140 77 f4 0e 3e cf f7 95 3e 53 e3 8f 3d d8 fa fa bd
       0.13960443 0.29290625 0.070257805 -0.12254876
000150 b9 bf cf 3c 62 3c ac bc 31 ce c5 bd 8c 20 d8 bd
       0.025359975 -0.021024887 -0.096584685 -0.10553083
000160 bd bc 44 3c 18 ca e3 3d 30 3f 57 3e 25 bd 9f bc
       0.012007889 0.11122531 0.21020198 -0.01949937
000170 12 50 fb 3c 8c b3 32 3d 4f b5 fb 3d 41 84 a4 3d
       0.030677829 0.04362826 0.12290441 0.08033038
000180 ad 85 13 be 12 80 81 bd bc 27 16 bb 3d 6c 92 3e
       -0.14406462 -0.063232556 -0.0022911867 0.28598204
000190 36 f4 18 be d3 86 eb bd 7c e8 02 3e 19 1b c0 bd
       -0.14936909 -0.11500325 0.12783998 -0.093801685
0001a0 c7 d9 d4 3d da cd 6f bc 4e 62 5d be ce 58 5c be
       0.103931 -0.014636481 -0.21619532 -0.21518251
0001b0 91 fe ab bd d6 1b 87 bd 68 4d 52 3d bf 85 81 bd
       -0.08398164 -0.06597106 0.05134335 -0.06324338
0001c0 20 ac 17 be d9 03 c5 3d 6a c8 17 bd 0a 82 81 bd
       -0.14811754 0.096198745 -0.037056364 -0.06323631
0001d0 5a 15 01 be 2f fd 5b 3e 96 07 b2 bd 3f fa 86 bd
       -0.12605801 0.214833 -0.08692853 -0.065906994
0001e0 24 fb 9b 3d 13 68 89 3d d6 f4 63 bd d3 de 1a 3e
       0.07616261 0.06709304 -0.055653416 0.15124063
0001f0 1a d8 07 bc f5 17 d5 3d 4d 3e c0 bd dd b3 66 bd
       -0.008291269 0.1040496 -0.09386883 -0.056323875
000200 c8 49 ec bd cd d3 59 bd e3 39 cf 3d f8 c7 35 be
       -0.1153751 -0.053180505 0.10118463 -0.17752063
000210 70 04 ac 3d 62 27 30 3e 64 e8 24 be 56 e1 83 3d
       0.08399284 0.17202523 -0.16104275 0.06439464
000220 77 ae c4 3c 87 53 8d bd 7a ec 18 3e 2a 96 63 3e
       0.024008973 -0.06900697 0.14933959 0.22225252
000230 bd 7b f3 3d b7 68 40 3e a7 79 0f 3b 99 9a 6d 3c
       0.118888356 0.18789946 0.0021892579 0.014502191
000240 b7 ab 06 3e 98 ae 05 3e 79 5f bf 3d f4 7d d9 3d
       0.13151442 0.13054883 0.09344382 0.10619727
000250 50 cf 15 3e 1e ea 71 bd 9c c6 29 3c ee 12 f4 3d
       0.14629865 -0.059061162 0.010362294 0.11917673
000260 dd 88 89 3c 7a 6c e2 bb 58 58 b9 3d 69 47 24 3e
       0.016788894 -0.006909904 0.09050053 0.16042866
000270 60 e7 3b 3c 5a 64 f5 bd bf c8 27 be 74 6d c5 bd
       0.011468738 -0.11982031 -0.16385172 -0.09640017
000280 fb 4a ac 3d 47 7b 97 bd 3c b0 4d 3e 61 56 eb bd
       0.08412739 -0.0739656 0.2008676 -0.11491085
000290 37 cd 17 bd 3a f2 c4 bc 71 d6 c0 bd e0 3d 85 bc
       -0.037060943 -0.024041284 -0.094159015 -0.016264856
0002a0 d6 4c 01 be 45 27 9f 3a 52 a0 cf bd 34 bd 03 3e
       -0.12626967 0.001214244 -0.101380005 0.12865144
0002b0 cc 39 09 be 6d 36 2e 3d db e0 19 3e cd 44 0e 3e
       -0.13400954 0.042532373 0.15027182 0.13893433
0002c0 e2 e8 31 3e 35 b3 d3 3d 69 83 31 be ec 75 a2 3d
       0.17373994 0.103369154 -0.17335285 0.07932648
0002d0 f1 84 2f be 12 9a 03 3e 66 a6 2c 3e 45 c3 15 bc
       -0.17140557 0.12851742 0.16860351 -0.009140794
0002e0 f0 c0 0b be 87 c2 31 be bd c4 cd bd 5f b2 d9 bc
       -0.13647819 -0.17359363 -0.100472905 -0.026574312
0002f0 a4 a4 20 be 79 f6 2b be 60 30 09 be ea 8c 12 3e
       -0.15687805 -0.1679324 -0.1339736 0.14311567
000300 61 73 81 bc 50 cc 1e be fe 43 1e be 83 27 33 be
       -0.015802087 -0.15507627 -0.15455624 -0.17495541
000310 d0 aa f8 3c e6 89 ca bd 77 a1 ea 3d 9e 97 12 3e
       0.030354887 -0.09889583 0.11456578 0.1431565
000320 06 42 26 bd 12 5e 37 be 0e 0e 28 3e bc 5d 08 3e
       -0.04059031 -0.17906979 0.16411611 0.13317007
000330 4f 32 b9 bb b9 03 4f bc cd c7 32 3d 2f b4 17 3e
       -0.005651749 -0.012635165 0.043647576 0.14814828
000340 a2 88 44 3e ab e6 48 3e e2 96 25 3d 51 42 08 be
       0.19192746 0.19619243 0.040427096 -0.13306548
000350 19 da 24 bd 9e 6f c4 bd ad 59 3a 3e b0 29 7f 3d
       -0.040247057 -0.09591602 0.18198271 0.062295616
000360 70 86 f3 3d 2f c5 3d be 85 d9 46 3e 01 48 36 be
       0.11890876 -0.18532251 0.19418915 -0.17800905
000370 3e c7 0e 3e 86 9e 06 be 27 b8 46 3e 2c 0c da 3d
       0.13943192 -0.1314641 0.19406186 0.10646853
000380 1f d9 60 bd 33 ad f0 bd 34 cf ee bd 70 f9 45 3d
       -0.054894563 -0.11751785 -0.116606146 0.048333585
000390 9c ac 0c be a7 2d 13 be 01 a4 f5 bd 91 bd 92 bd
       -0.1373772 -0.14372884 -0.11994172 -0.07165063
0003a0 72 dc 31 3e dd 0d 20 3e eb 9c e9 bd 56 fd 59 be
       0.1736925 0.15630288 -0.11406883 -0.21288046
0003b0 68 cc 38 3e bc a3 51 bd 8a 51 ff 3d c9 3e e6 3d
       0.18046725 -0.05118154 0.12466724 0.11242444
0003c0 c3 2c 61 bc 35 c2 a0 bd 08 ac ce 3d 8f e5 68 bd
       -0.013743582 -0.07849542 0.10091406 -0.05685955
0003d0 ee 98 2b 3e 88 8e 19 3e 57 01 0e 3e e4 96 03 3e
       0.16757557 0.14995778 0.13867699 0.12850529
0003e0 75 eb 9b 3d 6b 14 8d bc ec 53 19 be 06 5b d8 3d
       0.07613269 -0.01722165 -0.1497342 0.10564236
0003f0 9f 71 ac 3d 2a 1f 48 3e 3a f6 1c be 73 85 90 bd
       0.08420109 0.19543138 -0.15328303 -0.070567034

features.0.bias f4 [32]
000000 58 4e 53 3c c0 eb 17 3e b8 8d ab bd 5d 04 5e 3d
       0.012897097 0.14836025 -0.0837664 0.05420338
000010 cb d7 b1 bd 80 1d 36 be ac 45 06 be cc 76 28 3e
       -0.08683737 -0.17784691 -0.13112515 0.16451567
000020 7a da 11 3c e6 5a db bd 64 9f cf bd a6 58 cd 3d
       0.0089021865 -0.10710697 -0.10137823 0.10026674
000030 49 9b 0e bc f7 c0 33 be d8 49 fd 3d ff 60 10 be
       -0.008704015 -0.17554079 0.123676 -0.14099501
000040 74 ae 84 bd 9e 58 4b 3e a9 cd 0e be f1 ff 5e 3d
       -0.06478587 0.19858024 -0.1394564 0.054443303
000050 c4 72 45 be 7b 35 98 3d 4b 35 8f bd cd 0b 1c be
       -0.19282061 0.074320756 -0.06992587 -0.15238877
000060 85 d2 22 3e de eb f6 bd 5d 01 d6 3d 0e a1 3a be
       0.1590062 -0.12056707 0.10449479 -0.182255
000070 31 89 23 3e a6 d7 c2 bb 1f d3 23 be ad b5 53 be
       0.15970303 -0.0059461175 -0.15998505 -0.20674773

features.3.weight f4 [64, 32, 3, 3]
000000 df f6 72 3d 85 f6 01 bd ff 0d 37 bd a5 04 e7 3a
       0.059317466 -0.03172924 -0.044691082 0.0017625286
000010 66 40 72 ba 93 ae 91 3c 71 bd d1 bc b4 6d 70 3d
       -0.00092411635 0.017783439 -0.025603028 0.05869837
000020 6b b4 09 bd a2 d4 92 3d 51 74 15 3b da 47 4d 3d
       -0.033619326 0.07169463 0.0022804926 0.05011735
000030 4b 42 de bb a8 55 c1 3c ea 77 82 3d ea 55 de 3c
       -0.006782805 0.023600414 0.06370528 0.027140576
000040 1b 19 38 3d 3c 5e ae 3d d7 38 ff bc d6 e2 75 bd
       0.044945817 0.085140675 -0.031155033 -0.06003078
000050 5c ad 37 3d 6b 60 14 bd 21 30 3e 3a ed 82 fc b9
       0.044843063 -0.036224764 0.00072550966 -0.00048162733
000060 6f 50 80 3c 54 ee 8a 3c 94 ff d8 3c 6a db 38 3d
       0.015663354 0.016959347 0.026489057 0.045131125
000070 a3 9d ee bc 00 10 73 bd 4b a9 0c bd f0 50 ca bb
       -0.029127901 -0.05934143 -0.034341138 -0.0061741993
000080 e8 82 e3 bb 98 f6 2b bd 42 6b 90 3d d2 40 9e 3c
       -0.0069430955 -0.041983217 0.07051708 0.019318018
000090 5f c6 5c bd d6 ef 4b 3d 2b 88 7e 3c 72 3b 76 3a
       -0.05390012 0.049789272 0.015535395 0.00093930133
0000a0 e7 3c bc bc 46 65 22 3b fa 1a 0f bd d1 50 d0 3a
       -0.02297826 0.0024779602 -0.034937836 0.0015893226
0000b0 c7 9f 15 3d 7e 03 c3 bb 21 e9 7d bd da 8e 7c bc
       0.03652933 -0.005951344 -0.061989907 -0.015414918
0000c0 13 b9 fb 3c 8f 28 c8 bc 72 c2 8b b9 83 4a fe bb
       0.030727899 -0.024433402 -0.0002665702 -0.0077603473
0000d0 87 22 66 bd 45 b3 94 bd 7b 01 0b bd 66 34 2c bd
       -0.05618527 -0.072607554 -0.03393696 -0.04204216
0000e0 bf 12 60 bc 05 fe bd bc 4e 4a 66 3d dc 15 5a 3c
       -0.013676344 -0.023192415 0.056223206 0.013310876
0000f0 ef 0d 15 bd bd d9 0c bd 65 8f 70 3c 3b ac 3e 3d
       -0.03639024 -0.03438734 0.014682625 0.04655097
000100 ce 23 85 3d 2e 35 33 3d b1 a5 52 3d 67 13 a4 3d
       0.0650097 0.043751888 0.051427547 0.08011513
000110 c0 e6 65 bb 71 0b d4 bc 18 72 c0 bc ce 9e 7b 3d
       -0.0035080165 -0.025884362 -0.023491904 0.061430745
000120 ab 1f 81 bd 5e 6b 64 bd 4b 7e 71 bd 0b 66 7b 3c
       -0.06304868 -0.055766456 -0.058958333 0.015344153
000130 88 68 92 3c 2b 06 bb 3a 10 ca 6f bc 9d 2a e6 3c
       0.01787211 0.0014268806 -0.014635578 0.028096491
000140 d8 60 59 3d c3 eb 93 3c 15 8c 86 bc d4 d2 1d bd
       0.053070873 0.018056756 -0.016424218 -0.03853114
000150 38 f3 30 bc d5 97 81 3c c3 aa 18 3d 7e 97 6f bd
       -0.010800175 0.01581947 0.037272226 -0.058494084
000160 d3 74 22 3b 69 6b 51 bc 3d 85 d2 bc 08 1f c7 bc
       0.002478887 -0.012781956 -0.025698299 -0.024306789
000170 f4 23 dd 3c 3b da 27 bc 73 4c 76 3c 03 ed 08 3c
       0.026994683 -0.010244901 0.015032875 0.008357289
000180 44 9c b0 bc 3f ed 53 bd f3 8c dc 3c 68 0f a5 bc
       -0.021558888 -0.051739927 0.026922679 -0.020148948
000190 a5 40 72 bd 38 ad 44 3b 97 4b 85 bd dc 11 31 bd
       -0.05914368 0.0030010473 -0.06508558 -0.043229923
0001a0 db a3 55 3c db a2 3f bd 1f e1 f0 bc 34 50 82 bd
       0.0130395545 -0.04678617 -0.029404221 -0.06362954
0001b0 58 d8 54 3d ed 6b 37 3d 85 82 a2 bb 7f 23 08 3d
       0.051964134 0.04478066 -0.004959407 0.033236977
0001c0 b5 46 3c 3d d2 c5 33 3d 98 5f ed bc 79 a6 1e 3c
       0.04596587 0.043889828 -0.028976247 0.009683245
0001d0 e9 c9 91 3d 59 c0 8c 3b be 33 26 bc 55 09 5c 3d
       0.071185894 0.0042953906 -0.010144172 0.053719837
0001e0 e2 7e f2 bc ec ec 61 bd ff 37 ec 3c 1e 61 36 3d
       -0.029601518 -0.055157587 0.028835295 0.044526212
0001f0 53 98 ed 3b 65 20 5d 3d 6c 5d 44 bb 78 50 ea 3b
       0.0072508245 0.053985972 -0.002996291 0.007150706
000200 f1 45 23 3d 13 4e 47 b9 00 f8 75 3d 8a ea 68 bc
       0.039861623 -0.00019007204 0.060050964 -0.014216075
000210 c6 7a 4d 3c f2 fe 87 3d 17 57 2e 3c ed 49 50 bd
       0.0125414785 0.06640424 0.010640881 -0.05085175
000220 8c 5b 9d bd b2 6c 92 bd 03 df 13 bd 53 b0 7d 3c
       -0.07683477 -0.07149638 -0.036101352 0.0154839335
000230 0f 5c ea 3c 62 80 93 bc c9 3d 20 3d 16 76 a7 3c
       0.02860835 -0.018005554 0.039121423 0.02044205
000240 fc 1e 06 bc 11 a6 18 3d 7f 94 3d bc 14 5d cb 3c
       -0.008186098 0.03726775 -0.011571049 0.024824657
000250 d2 11 cf 3c 39 b4 8e bc 66 92 f6 3c 67 e7 d5 3c
       0.025277052 -0.017419921 0.030099105 0.026111318
000260 e8 fb c8 3b 5f 27 3a bd 22 42 c4 3c 76 0b 58 bd
       0.006133545 -0.045447703 0.023957316 -0.052745305
000270 78 f1 1e bd 71 c5 27 bc e2 2a 0e 3c ff ba 0a 3d
       -0.0388045 -0.010239945 0.008677216 0.03386974
000280 84 fe 9f 3c ee 32 41 3d 25 43 d0 3c 50 fa e6 bb
       0.019530542 0.04716771 0.025422642 -0.0070488825
000290 c3 6b 96 bd e0 4a 96 3d d0 3a 60 3b 0b c3 0b bd
       -0.07344773 0.073385 0.0034214742 -0.034121554
0002a0 ac a3 94 3d 0e f4 99 3c 24 a9 60 3d 4f 48 86 bd
       0.072577804 0.018793132 0.054848805 -0.065567605
0002b0 e5 ee ac bd a1 83 b7 3a 54 59 d4 3c d3 8b d5 bc
       -0.08444003 0.001400102 0.025921501 -0.02606765
0002c0 a8 7e a1 bc 64 bc b7 3c 2b 57 27 bd 76 bf 8d bc
       -0.019713715 0.022428699 -0.040854614 -0.01730321
0002d0 0c a5 e4 3b 92 0e 0e 3d 42 d0 c4 bc 1a c2 4c bb
       0.006977683 0.034681864 -0.024025086 -0.0031243623
0002e0 9c 20 fc bc f3 3a 87 bc 0b bc 33 3b 6f 7f 49 3d
       -0.030777268 -0.016507601 0.0027425315 0.049193796
0002f0 40 29 d8 3c 06 9d 37 3d af 6e 1c 3d 43 30 69 3d
       0.026386857 0.044827484 0.038191494 0.05693079
000300 56 34 e1 3c 71 ab 53 3d 25 38 f2 bc 55 7e 12 bd
       0.027490776 0.05167717 -0.029567787 -0.03576501
000310 b0 23 23 bd e5 60 fe 3b af 3e d6 bc 6c 70 dc 3a
       -0.039828956 0.0077630156 -0.026152937 0.0016818172
000320 4c 5d fe bc 0a 57 b3 bb 44 12 04 bc 95 4a d8 bb
       -0.031050347 -0.0054730223 -0.0080609955 -0.0066006877
000330 1b f9 57 3d 37 82 20 bc fc df 65 bb 33 70 ac 3c
       0.0527278 -0.009796671 -0.0035076132 0.021049595
000340 66 5f 8c 3c c6 32 88 bb 31 c4 cc bc a5 42 bd bc
       0.017135333 -0.0041564433 -0.024995895 -0.023103068
000350 b9 ca 73 3d da ab 31 bd 2c 41 63 3d 9a 59 8d bc
       0.059519503 -0.04337678 0.055482075 -0.01725464
000360 c4 05 8a 3d 81 dc b9 bc 86 2c 16 3b dd 8d 88 3d
       0.06739381 -0.022688152 0.0022914722 0.06667683
000370 30 64 bd 3b 87 26 93 3d 95 e8 13 3d de be 9c 3d
       0.0057797655 0.07185083 0.03611048 0.076535925
000380 ba 6f 25 3d 09 c5 ca bc 50 0d 85 bd b8 ca 3d bc
       0.040389754 -0.024752157 -0.0649668 -0.011583976
000390 89 f4 11 bc ef 43 1a 3d e2 4c 20 3d 33 51 a6 bc
       -0.008908399 0.037662443 0.03913582 -0.02030239
0003a0 ec 0e 3d 3c 8c 85 07 bd 86 5a 09 3b a1 d6 0f 3d
       0.011539202 -0.033086345 0.0020958497 0.035116795
0003b0 f8 82 92 bc eb 89 5e 3d 4d 39 23 3d 3e 69 8c 3c
       -0.017884716 0.054330748 0.03984957 0.017140027
0003c0 04 94 bd 3c 1c 57 93 3c 97 09 f4 bc f7 51 7b 3c
       0.023141868 0.017985873 -0.029789729 0.015339366
0003d0 63 c7 8f bc 9f 51 fb bc a9 63 e2 3c fa c6 20 bd
       -0.01755113 -0.030678568 0.027635412 -0.03925226
0003e0 8d 07 02 3d 97 47 71 bd 14 06 20 3d 03 10 00 3b
       0.031745482 -0.058906164 0.039068297 0.0019540794
0003f0 3c 20 91 bb dc 64 78 3c 0c 34 69 bd 25 ea 0c 3c
       -0.0044288915 0.0151607655 -0.0569344 0.008600746

features.3.bias f4 [64]
000000 4f f6 4a 3d 45 be 2d bd ad 28 57 3d 1f 69 38 bd
       0.049551304 -0.042417783 0.052529026 -0.045022126
000010 45 79 0c 3d f4 37 33 bd ff dc a9 3d a3 11 da bc
       0.03429534 -0.043754533 0.08294105 -0.026619738
000020 33 e8 9b bc 2c c4 06 bd 9c 95 58 bd 88 d6 88 bc
       -0.01903162 -0.032901928 -0.052877054 -0.016703859
000030 57 dc a6 3c d6 27 81 bc 13 8e 18 bd 96 c7 98 bc
       0.020368738 -0.015766066 -0.037244868 -0.018649857
000040 2a a1 80 3d 9c 96 94 3c eb f5 4e 3d 33 b1 93 3c
       0.062807396 0.018138222 0.050527494 0.018028831
000050 f4 80 de bc 26 0c 8f 3b 6c b4 94 bc 79 ce 83 3d
       -0.027161099 0.004365462 -0.018152438 0.06435866
000060 80 ee 0e bd 5f cb c2 bc 0f 43 78 bc 2f 6f 4e 3d
       -0.03489542 -0.023778616 -0.015152707 0.050399
000070 b7 37 d7 bc f1 bd 9a bc cd bf 30 bd c6 1f a4 3d
       -0.026271684 -0.0188894 -0.043151665 0.08013873
000080 92 b4 7d bd 34 d4 8f bd 8e 20 a7 bc f7 01 f7 3c
       -0.061939783 -0.070228964 -0.020401265 0.030152304
000090 af b7 98 3d 33 b7 fb bb 9c 8a 72 3d 1c 8d c7 bd
       0.0745691 -0.007681751 0.05921422 -0.09743711
0000a0 e5 cb 48 3d f4 f4 a6 3c 75 5b 59 bd 31 ae b7 bc
       0.049022574 0.020380475 -0.053065736 -0.022421928
0000b0 56 da 92 3d 3f 46 82 3a e0 f3 78 bd aa b6 c3 bc
       0.071705505 0.0009939148 -0.060779452 -0.023890812
0000c0 25 3c e9 bc d8 84 84 3d 23 db 68 3d fe 17 0f bd
       -0.028471062 0.064706504 0.05684961 -0.03493499
0000d0 e1 74 ce bc 97 91 40 3d 62 9b 1a 3d 53 36 ac bc
       -0.025202217 0.047013845 0.03774584 -0.021021998
0000e0 c1 a4 8b bd 46 68 58 3d b9 f8 5b 3b c0 ec 30 3b
       -0.06818534 0.052833818 0.0033564998 0.0026996583
0000f0 5a 2a 64 bd 58 ae 80 bd 62 db 40 3d 09 79 73 3c
       -0.055704452 -0.062832534 0.04708422 0.0148604

features.6.weight f4 [128, 64, 3, 3]
000000 4d 84 81 bc 85 a6 1d 3d d9 3b 9c 3c f5 10 1c 3d
       -0.015810156 0.038488884 0.019071506 0.03810211
000010 01 51 ca 3c 17 78 6c 3c ec 07 b2 3c 3e 96 cd bb
       0.024696829 0.0144329285 0.021732293 -0.006274014
000020 80 83 3f 3d 05 46 1d 3d ce 6f 99 3c 11 f2 31 3d
       0.046756268 0.038396854 0.01873007 0.043443743
000030 02 2a 53 bc 4b 8f 5d 3d 95 17 95 3c ab 84 67 3c
       -0.012888433 0.054091733 0.018199721 0.014130752
000040 f9 1d 5d 3c c9 a8 16 3d b3 8c 1c bd e3 2b f5 3c
       0.013495916 0.03678206 -0.03822012 0.029928153
000050 6c e5 ef 3c a1 d5 3b bc 81 45 09 bd 3d 73 12 3d
       0.029284202 -0.011464507 -0.03351355 0.03575443
000060 51 c0 f0 bc d0 7e ac bc 2e 9f 17 bc 40 de 09 bd
       -0.029388579 -0.021056563 -0.00925426 -0.03365922
000070 9f 3f bd bc 1b d3 24 bd 2f ec b2 bc e0 78 a7 3c
       -0.023101626 -0.04024039 -0.021841137 0.02044338
000080 1d 07 0f bd be 6c 87 bc 13 85 e7 3c 33 8b 13 3c
       -0.034918893 -0.016531345 0.028261697 0.009005356
000090 3f b6 2a 3d 22 20 48 3b cc 26 5e 3d 4c 70 35 3d
       0.04167771 0.003053673 0.05423622 0.044296548
0000a0 4b 31 2a 3d 75 87 37 bc 8e 55 67 3d aa 59 2b bb
       0.041550916 -0.011201729 0.056478076 -0.0026145973
0000b0 58 2d a6 bc 49 c8 90 3d 6a 20 96 3d 2c d0 8c 3c
       -0.020285293 0.07069451 0.07330401 0.017189108
0000c0 fa e6 ae 3c 7d 2d 49 3d cc c1 be 3c b3 1f 12 3d
       0.021350373 0.049115647 0.023285769 0.035674762
0000d0 d9 b3 56 3c e2 e1 a3 3d 43 fc a1 bc 60 db 0d 3b
       0.013104402 0.08002068 -0.019773608 0.002164565
0000e0 64 90 15 bc cf f8 96 3c 7a cb 02 bb d6 dc e1 3c
       -0.009128664 0.018429188 -0.0019957707 0.027571123
0000f0 a9 a5 10 bd dc 87 40 3d c0 9a 85 ba e3 c2 83 3d
       -0.035314236 0.047004566 -0.0010193214 0.06433656
000100 79 67 d4 3c 52 33 7d 3d 7b b3 8a 3d f3 74 01 3c
       0.025928246 0.06181652 0.067725144 0.007901418
000110 ed 9d 9e 3d d2 96 4c 3d c0 e0 3a b8 0b d6 68 3d
       0.07744966 0.04994852 -4.455517e-05 0.056844752
000120 78 52 01 3d 79 e7 45 bc a5 f9 0a 3d d5 0e 4b 3d
       0.03157279 -0.012079113 0.033929486 0.04957469
000130 e9 6e bc 3c 22 cd 0e bc 34 54 1f bc 1d e5 d4 3b
       0.023002105 -0.0087159 -0.009724665 0.006497039
000140 df d1 a8 3c b0 b5 4e 3a 19 12 97 3d 62 e2 08 3c
       0.020607887 0.000788535 0.07376499 0.008354755
000150 c6 f5 3b 3d 44 a1 4f bb 47 8e 6c 3d ef fb 99 3d
       0.045888685 -0.0031681815 0.057752874 0.07518756
000160 ee f3 9d 3d c4 61 08 3c 5e 8b a4 ba a4 d9 8e bb
       0.077125415 0.00832409 -0.0012553742 -0.004359441
000170 c9 74 da bb 8c 83 23 3d a3 40 21 3d 2e fe 6a 3c
       -0.006666754 0.039920375 0.039368283 0.014342828
000180 36 d3 8f bc 28 c6 27 3d 34 5e a1 3c 00 a1 02 bc
       -0.017556768 0.04096046 0.01969824 -0.007972956
000190 f7 11 bf 3c 8c ae 99 3b 32 92 42 3c 52 e0 c4 3c
       0.023323996 0.004689997 0.011875676 0.024032746
0001a0 79 b2 04 3d 53 7e 30 3c d9 1f 34 3d 40 82 d6 3c
       0.032396767 0.010772306 0.043975685 0.026185155
0001b0 dd de 29 bd c0 32 8b bd 97 4b 81 bd 17 33 83 bd
       -0.041472305 -0.06796789 -0.06313246 -0.06406229
0001c0 1d 9d 53 bd 51 f9 8d bd 64 7f 8b bc 5a b0 77 bd
       -0.051663507 -0.06932319 -0.017028518 -0.060470916
0001d0 ac a4 5d bd bc 56 75 3b 36 69 59 bd 6c a6 18 3c
       -0.05411212 0.003743573 -0.053078853 0.009317022
0001e0 52 88 f2 3b 81 ed 39 bd f6 db 28 bd c7 43 1d 3c
       0.0074015046 -0.045392517 -0.041225396 0.009598679
0001f0 7e 27 7e bd c9 31 6d bd 51 d5 45 3b 4b 22 2f 3d
       -0.06204938 -0.057908807 0.003018696 0.042757314
000200 36 c9 89 bc fd 57 ba 3b 02 2e 56 3d 1e 0e 82 3d
       -0.016819578 0.0056867586 0.05228997 0.06350349
000210 85 10 84 bb 6a 6f 3e bb ff 91 80 3d ca 6b 66 3d
       -0.0040302896 -0.0029058107 0.062778465 0.05625514
000220 7e a6 62 3d a8 d5 b6 3c 60 dc 46 3d b1 48 8e 3c
       0.05533456 0.022318676 0.04855001 0.017368646
000230 9c f6 81 3c 74 c9 53 3d 5b fa 77 3d 7b a8 92 bb
       0.015864663 0.051705793 0.060541492 -0.004475651
000240 68 7f 43 3d 50 ec d2 3b e2 03 4c 3d c7 fc 4c 3d
       0.047728926 0.006436862 0.04980839 0.050045755
000250 ac d6 12 3d 5e a4 b6 3b 6b 98 95 bb 23 2d 12 3d
       0.03584926 0.0055737933 -0.004565289 0.035687577
000260 27 a6 0d 3d 84 2d c0 3c 53 f5 cd 3c 67 ed c3 bb
       0.034582283 0.023459204 0.025141394 -0.0059792283
000270 aa b7 34 bd b4 f3 47 bc 67 09 3b bd d8 6b 67 bd
       -0.04412047 -0.012204099 -0.045663264 -0.056499332
000280 d8 b2 da bc 5a dc c4 3b 12 d3 4a 3d 38 a4 10 3d
       -0.026696607 0.0060077133 0.0495177 0.03531286
000290 d6 22 00 3d bc f9 67 3d 9c b2 23 3d 3f f2 ec 3c
       0.031283222 0.05663465 0.039965257 0.028924106
0002a0 e8 18 10 3d 72 6e 52 3d 02 5d 39 bc ef 71 71 3d
       0.035180002 0.05137486 -0.011313679 0.058946546
0002b0 28 6b 96 3b d5 31 34 3d 16 b3 55 3d fa 28 9b bc
       0.0045904107 0.043992836 0.052172743 -0.018940438
0002c0 3d 9b 02 bc 8c a5 64 3d c4 98 07 3c c3 e7 94 3b
       -0.007971582 0.05582194 0.008276168 0.0045442297
0002d0 35 b8 ea 3c a4 a4 0d bd f8 42 ae bc ba da d8 3a
       0.02865229 -0.03458084 -0.021272168 0.0016544678
0002e0 cf 01 17 bd dd 94 25 3d 2c a5 20 bd 3b 4d 05 bd
       -0.03686696 0.04042517 -0.03922002 -0.032544356
0002f0 87 27 f2 bc 75 89 f3 3c 18 f8 65 3c b3 51 fd 3c
       -0.029559864 0.02972863 0.014036201 0.030922746
000300 3d 69 f5 bb 15 1f 9c 3c 5e e9 30 3c 57 95 49 bc
       -0.007489352 0.01905779 0.010797827 -0.012303672
000310 b6 88 e5 bc e9 af f3 bc d6 bb 06 3d 7f f0 cb 3b
       -0.02801929 -0.029746966 0.032893978 0.0062237377
000320 3f 18 10 3d b4 b7 91 3c f9 76 5f 3d c8 c2 27 3d
       0.035179373 0.017787792 0.05455682 0.040957242
000330 ca 9f af 3c 97 79 5c 3d 73 8c e1 3c 34 cd 4f bc
       0.021438498 0.053826895 0.027532792 -0.012683202
000340 da 6a e7 3c bc d8 2a 3d 67 46 15 3c 4c 84 95 bb
       0.028249193 0.0417106 0.0091110235 -0.00456289
000350 ba 01 6b 3d 48 3a 4c 3d f2 65 1e 3d 8c 4a 34 3d
       0.057374693 0.04986027 0.03867144 0.044016406
000360 89 4b 1e 3c 3c b5 27 3d 49 cf b7 bc c8 42 53 3c
       0.009661564 0.040944323 -0.022437708 0.01289434
000370 00 ce 05 3d 9d 12 37 bc c9 35 ac 3c 9d e8 22 bc
       0.03266716 -0.011173871 0.02102174 -0.009943155
000380 ec 31 dc bc 4f 98 7c 3c cd 5b 8c bb bb 02 6f bc
       -0.026879273 0.015417173 -0.0042834044 -0.014588053
000390 34 67 1b 3d 78 89 8e bb 20 6c b1 3c c0 e2 f7 bc
       0.03794022 -0.0043498836 0.021658003 -0.03025949
0003a0 86 6d 8e bc dc fd b4 bc 22 85 6c 3d 74 0d 83 3d
       -0.01738621 -0.022093706 0.057744153 0.0639905
0003b0 98 da 02 3d c5 95 52 3d 84 44 06 bc 5e c0 40 3d
       0.03194675 0.051412363 -0.008195046 0.047058456
0003c0 32 15 4a bc 13 a7 be 3c 75 c8 83 3d de 79 5e bc
       -0.012334155 0.023273027 0.064347185 -0.01357886
0003d0 49 51 23 3d 09 34 ab bc f8 ca 84 bc 10 8b b3 bc
       0.03987244 -0.020898836 -0.016210064 -0.021916896
0003e0 21 e7 42 3d 47 50 67 3d d2 3c 43 3d b9 4f 65 3d
       0.047583703 0.056473043 0.047665425 0.055984233
0003f0 c8 64 f7 3c 95 f7 d1 3c 0d 4d ea 3c b5 af 36 3d
       0.030199423 0.025630752 0.028601194 0.04460116

features.6.bias f4 [128]
000000 ce 95 e9 3c 63 66 1a 3d 2b f0 9f 3c 38 2e 70 3c
       0.028513815 0.0376953 0.0195237 0.014659457
000010 28 a8 98 3b a4 af 38 bd d9 d5 d6 bb df c6 cf bc
       0.0046587177 -0.04508938 -0.0065562543 -0.025363384
000020 5a f7 13 ba a3 66 9c bc 61 0d 66 3d 80 80 2e bd
       -0.0005644463 -0.01909191 0.056165103 -0.042603016
000030 ed eb 3c 3d 82 3e 9f 3b be b4 d8 3c 02 9e 3f bc
       0.046123434 0.0048597464 0.026453372 -0.011695387
000040 ec a2 c5 bc 42 4b 77 3d a8 d6 af bc 86 5d 24 bd
       -0.024125539 0.060374506 -0.02146466 -0.040128253
000050 66 5c 69 bd fb 2c fd 3c 7b e4 ef 3c 4d 3f 14 bd
       -0.056972884 0.030905237 0.029283753 -0.03619318
000060 2a 59 ae 3c 44 e7 87 bc cd 4f 02 3c 74 1d 1f bd
       0.021282751 -0.016589768 0.007953596 -0.038846448
000070 ea 9e e6 3c 8a 34 5f 3c 46 11 25 3d 71 c7 38 bb
       0.028151948 0.013623366 0.040299676 -0.0028195048
000080 37 82 94 3d f2 85 a8 3a aa fc 04 3d 27 fc 43 bd
       0.07251399 0.0012857302 0.03246752 -0.047847893
000090 0a 12 2a 3d 76 b8 8f bc f1 98 2b 3c 32 aa 2c 3d
       0.04152111 -0.017544013 0.010473476 0.0421545
0000a0 16 ea 01 3c 06 3c 83 bb 68 fc 6a 3b b5 07 22 bd
       0.007929346 -0.004004958 0.0035856012 -0.03955813
0000b0 f2 84 aa 3c b7 f2 b0 bb f0 9c 8c bc 23 7a 26 bd
       0.020815346 -0.0054000276 -0.017164677 -0.040643822
0000c0 fa d2 ef 3d b6 3c f6 bc 56 38 96 3b 30 88 02 bc
       0.117101625 -0.030058246 0.0045843525 -0.00796704
0000d0 2b a2 27 bc a6 54 87 3b 13 c8 40 3d 51 cf 3a bd
       -0.010231535 0.004129964 0.047065806 -0.04560787
0000e0 dc 55 11 bd d9 3d e0 ba ed c8 41 bd 59 35 05 3d
       -0.035482273 -0.0017108276 -0.04731076 0.03252158
0000f0 51 42 a1 3c 9f 70 8f 3d 2d df 4e 3d 86 5f 05 3d
       0.019684942 0.07003903 0.050505806 0.0325618
000100 14 bc 50 3d a4 8a c1 3c 76 f5 94 bb 23 c8 a8 3c
       0.050960615 0.02362568 -0.004545863 0.020603245
000110 1f 4a 6f 3c bf 9e c6 bc fa af 01 3d d1 13 7b bd
       0.014605074 -0.024245618 0.031661965 -0.061298195
000120 6e c0 89 3c 2d 5c 81 3c 7a 78 99 bc ab 9c 8b 39
       0.01681539 0.015791023 -0.018734206 0.00026628873
000130 98 ee 82 3c a5 a6 31 bd 62 56 8c 3c c4 a2 02 bc
       0.015982911 -0.043371815 0.017131034 -0.007973377
000140 6d 54 cb bc ed cc eb 3c 0c 66 31 3d d1 f9 f9 3c
       -0.02482053 0.02878424 0.04331021 0.03051463
000150 9e aa eb 3c c1 ca 80 3d f9 97 3d bc ce 87 4d 3c
       0.02876788 0.06288672 -0.011571878 0.012544585
000160 17 fc 1e 3d 50 46 a1 3c 9a dc 49 b9 a6 e4 c0 bc
       0.03881463 0.019686848 -0.00019251034 -0.023546528
000170 dd b9 13 3a bd 4e c7 bc 5b 3c 44 3d 43 fe d9 3d
       0.0005635301 -0.024329538 0.047909122 0.106442
000180 d1 67 19 bd 62 1c 00 bd c2 4c 18 bd c5 14 09 3d
       -0.037452523 -0.031277068 -0.037182577 0.033467073
000190 b3 02 3c 3d ac bb d6 39 61 4b d5 bb 85 ad 5d bb
       0.04590101 0.00040957087 -0.00650923 -0.003382535
0001a0 3b bd 69 3b 40 92 e2 3c c7 2a ff b7 17 e8 34 3d
       0.0035665769 0.027657628 -3.0418289e-05 0.04416665
0001b0 0a bb ea bc 3e 32 b2 3b 21 09 1f 3d 7c 24 42 bb
       -0.02865364 0.0054381182 0.038827065 -0.0029623797
0001c0 bf 5d 2f bd 18 2b 72 bb f9 0c e5 3c 1a 26 5a bd
       -0.042814013 -0.0036951955 0.027960287 -0.053258993
0001d0 fa 16 e2 bb a0 43 2c bc 30 8a 92 bb d1 f3 82 bc
       -0.0068997117 -0.01051417 -0.0044720396 -0.015985401
0001e0 2d 53 74 bc 8d 4c f3 bc d2 1c 8e 3d f5 dd f0 3d
       -0.014912409 -0.029699588 0.06939091 0.11761085
0001f0 7e d7 29 3d 94 da 41 bd 73 26 bb 3c 93 8c a5 bc
       0.041465275 -0.047327593 0.022845482 -0.020208633

classifier.0.weight f4 [256, 128]
000000 93 3c ed bc 04 d2 21 bb 24 2f 35 bd 5d cc 15 bd
       -0.028959548 -0.002469183 -0.04423441 -0.03657185
000010 f1 28 c4 3d 9d 42 b9 3d d5 7d 8d 3c 65 dd 81 3d
       0.095781215 0.090459086 0.017271915 0.06341056
000020 2c 5f 49 bd 33 40 b0 bb aa d6 bf bd e3 66 5e 3d
       -0.04916303 -0.005378747 -0.09367116 0.05429734
000030 a6 4a 77 3d 84 b2 1b bd 0e 53 d6 3c dc 79 07 3d
       0.060373925 -0.038012043 0.02616265 0.0330752
000040 7d 3d a7 3d 31 01 51 bd 67 aa ae 3b 1a 0c 64 3d
       0.08166025 -0.051026527 0.005330372 0.055675603
000050 0f 8f 7b 3c d2 08 20 bc 8b e4 61 bd 26 ce 07 3d
       0.015353932 -0.009767728 -0.055149596 0.033155583
000060 45 7e d9 3c 4c 43 eb 3b f9 97 d2 3d 42 68 94 bb
       0.026549468 0.0071796533 0.10282893 -0.00452903
000070 18 df 07 be bc 74 05 bd d4 b2 a1 3c 1d 48 07 bd
       -0.13268697 -0.03258203 0.019738592 -0.033027757
000080 d4 26 24 3d 61 dc 81 bd 1f e3 c7 3d 17 ed 9f 3d
       0.040076092 -0.06340862 0.09760117 0.07808893
000090 80 79 ce 3c e5 39 d8 3c e6 c8 52 bd 5e 1b 42 3d
       0.02520442 0.026394794 -0.051461123 0.04738938
0000a0 fe a5 ca bd b3 f8 20 bd 08 d1 02 3c 6e b0 18 bc
       -0.09894942 -0.039299678 0.007984407 -0.009319408
0000b0 c6 94 7b bd bd 02 9f bd e6 7f c1 3d 2b 73 61 3d
       -0.06142118 -0.07764194 0.09448223 0.055041473
0000c0 ef 7d 88 bd b0 7f 8d bd 6d ee 11 bd c4 b3 7d bc
       -0.06664645 -0.0690912 -0.03562777 -0.015484754
0000d0 f1 3d 67 bc 35 91 64 3d e8 b2 57 3a a8 1c 80 3d
       -0.014113889 0.055802543 0.0008228258 0.06255466
0000e0 6a 5a fa bc fd 1e 04 bd cf 13 6b bd e5 0f 33 3a
       -0.03056069 -0.032256115 -0.057391938 0.00068306766
0000f0 78 a1 56 3c 9b 17 ad 3d 2f 67 75 bc f7 b4 78 bd
       0.013100021 0.08451768 -0.014978214 -0.060719457
000100 79 da a3 3c d4 98 80 3c 94 fe f1 bc 68 f7 30 bb
       0.020001637 0.015697874 -0.029540338 -0.0027002934
000110 5f c8 2a bd 22 d4 97 bd 67 30 8e bd bd 49 a5 bc
       -0.041694995 -0.07413508 -0.06942826 -0.020176763
000120 ce ef 92 bd a5 13 93 bd be 12 11 3d bc e9 bb 3d
       -0.07174645 -0.07181481 0.035418265 0.09175441
000130 c2 09 b1 3d 12 59 53 bd 08 2a d9 bd 29 bb ce 3c
       0.08644439 -0.051598616 -0.1060372 0.02523573
000140 61 2a a1 bc 18 e5 97 3d 3c 95 3b bd 24 7b 82 3d
       -0.019673528 0.07416743 -0.045796618 0.063711435
000150 ef 9d f9 bc d2 e4 6c bd 85 34 54 3d f0 3c 45 3d
       -0.030470816 -0.057835408 0.0518079 0.048153818
000160 26 05 56 bd 99 01 af 3c 48 2c 31 bd df fd a1 3d
       -0.052251004 0.021363067 -0.04325512 0.0790975
000170 9c 09 6f 3d 6d 4b 0a be 7f e7 e6 3d b4 93 4b 3d
       0.058358774 -0.13505335 0.11274623 0.049701408
000180 a6 bf c8 bc cc b2 ef bc 64 b5 b4 3d fd 25 a9 3c
       -0.024505448 -0.029260062 0.0882366 0.020647997
000190 e1 a9 e6 bb 92 8e dc ba 2d fe 58 3d da f2 1a bd
       -0.007039294 -0.0016827157 0.052976776 -0.037829258
0001a0 1e 35 d1 bd 19 d2 82 3c a9 24 46 bd 34 0a d7 3c
       -0.102152094 0.015969323 -0.048374806 0.026249982
0001b0 8a 23 43 bd 9e de ca bd 94 f5 0f 3e ac 73 16 bd
       -0.047641315 -0.09905742 0.14058524 -0.036731407
0001c0 5d cb 8b 3d 4c 1c 91 3c 8f 80 3b 3d b8 d0 5d 3d
       0.06825898 0.017713688 0.0457769 0.054154128
0001d0 eb 4d e1 bd 69 c1 58 bb db d8 ae 3a 9f 93 f8 3b
       -0.1100119 -0.0033074266 0.0013339774 0.007585957
0001e0 5c 9d 2d 3c d4 2d 84 bb 92 d8 47 bd 64 2d a9 bc
       0.010596599 -0.0040337835 -0.048790522 -0.020651527
0001f0 15 a7 b6 bb 99 45 63 3d 23 a8 e4 3d ae ae 6c 3c
       -0.005574117 0.055486295 0.11164882 0.014445944
000200 45 54 7a bd d4 47 fe 3c 92 2a 97 bd 3e e1 59 3d
       -0.061115522 0.03104011 -0.073811665 0.053193323
000210 a3 29 b9 bb ef bc c3 3d 70 1d 48 bc 41 8a 05 bd
       -0.0056507154 0.095575206 -0.01221405 -0.032602552
000220 31 03 b8 bc 4a ad a2 3b 7f f9 1e 3d 43 2f dc 3d
       -0.02246246 0.0049645053 0.038812157 0.10751202
000230 ea 08 79 bd d1 86 f4 3c 60 de 98 bd 76 8d 97 3d
       -0.060799517 0.029849442 -0.0746429 0.074000284
000240 df 26 9d 3d 10 8f c7 3d 38 65 f2 3a 8e cd 67 bb
       0.0767343 0.09744084 0.00184933 -0.0035370323
000250 28 c3 34 3c e6 c9 3c bd a7 e7 d9 bc 3d fd 24 bd
       0.011032857 -0.046090983 -0.026599718 -0.04028057
000260 91 fa db bb 1e 89 a7 bd 04 0b 59 3c f9 8b b8 bc
       -0.0067132195 -0.0818045 0.013247255 -0.022527682
000270 2c 95 4f 3d 7d d8 72 bd fa 1e bc 3d 39 bd 6f 3c
       0.05067937 -0.05928849 0.09185596 0.014632517
000280 a2 00 9f 3c 9b a2 13 bd 53 f4 76 3c 7f 69 cc 3d
       0.019409481 -0.036043745 0.0150729 0.09981059
000290 a5 db e4 3b 23 ca cf 3c 18 dd 97 3c 06 28 ed 3c
       0.0069841915 0.025364941 0.018538043 0.028949749
0002a0 47 ba 93 bd da 24 95 3d 35 3e a5 3d 8a 36 8c bd
       -0.07213264 0.072824195 0.08068506 -0.0684634
0002b0 8e 12 14 3e f6 cf 3c 3d 3d 90 17 3d c7 24 46 bd
       0.14460203 0.046096765 0.03700279 -0.048374917
0002c0 1f 17 27 be 91 62 bc b9 98 dc 66 bd 74 87 1e 3d
       -0.16317414 -0.00035931592 -0.05636272 0.038703397
0002d0 bf 91 0a 3e 55 76 ca bc 23 ea a1 3d e2 16 8b bd
       0.1353216 -0.024714628 0.07905986 -0.06791474
0002e0 8e e0 94 3d 4f 73 03 bd a0 28 0f 3e 38 f1 de 3d
       0.07269393 -0.03209239 0.13980341 0.108858526
0002f0 62 a4 ed 3d ed 22 9a bc fc 22 01 3e 20 0f 24 3d
       0.11603619 -0.018815482 0.12611002 0.040053487
000300 f7 eb 6e bd ad 7b 82 bd 7e 56 53 3d 66 ad fa bd
       -0.058330502 -0.063712455 0.051596157 -0.122401044
000310 b8 4e e0 3d 8b fb de 3d 7a 64 83 bd a2 62 5b 3d
       0.109525144 0.10887822 -0.06415649 0.05356086
000320 a8 fd 12 3e 5f ce 00 bc 56 61 31 bc f9 39 ca 3d
       0.14354575 -0.007861703 -0.010826429 0.09874339
000330 f4 98 38 bc 85 5c 9d bb fd 9d 95 3d e3 76 58 3c
       -0.011266936 -0.004802289 0.073055245 0.013211939
000340 47 5d 5d 3d 91 2d 2c 3d 44 67 24 bd f0 06 f2 3d
       0.054044034 0.042035643 -0.040137544 0.118177295
000350 2a 1a 40 3d 35 f3 ef ba 30 b9 3e 3e 4a 95 54 3d
       0.046899952 -0.0018306734 0.18625331 0.051900186
000360 c6 4b a9 bd 76 b3 dc bd 34 78 59 bd 72 f7 b4 bd
       -0.08266406 -0.10776417 -0.05309315 -0.08836259
000370 15 0e 7e 3d 13 d5 85 bd 76 a2 99 3d 2d 39 c1 bd
       0.06202515 -0.06534781 0.0750169 -0.094347335
000380 19 85 2d 3d ef a6 15 bd a8 3f c3 3d bd 35 91 3d
       0.04236326 -0.036536153 0.09533626 0.07090328
000390 09 d8 d3 3d ee d3 99 3d df aa 51 3b 21 72 13 3d
       0.1034394 0.075111255 0.0031992716 0.035997514
0003a0 be 50 99 bd fd 7e 12 3e c0 0a 5e 3d be 65 92 3d
       -0.074861035 0.14306255 0.05420947 0.07148312
0003b0 34 66 88 3d 9e 04 8c bd 99 45 eb 3d 70 f3 0c 3e
       0.06660119 -0.06836818 0.11487884 0.13764739
0003c0 5c df 85 3d 34 c5 e4 bc cf 84 26 bd 66 ba 20 bc
       0.06536743 -0.027926065 -0.040654 -0.009810066
0003d0 ea f7 ad bb bc 41 0f 3c 71 67 eb 3d 75 59 d2 3d
       -0.0053090947 0.0087437 0.11494339 0.10270969
0003e0 a6 bd a7 3d 1d 38 e5 3c 12 2d 4d 3d bd 84 8a bd
       0.081904694 0.027980858 0.05009181 -0.06763599
0003f0 b0 29 43 bc 90 f7 9f bd 99 13 03 3e 9a ce 92 bd
       -0.011911795 -0.07810891 0.12800445 -0.07168312

classifier.0.bias f4 [256]
000000 9a 0a c5 bc 48 8c a5 bc b9 35 1b bd 55 ea 96 bd
       -0.024052907 -0.020208493 -0.03789303 -0.07368914
000010 1b ba a2 bd 18 dc dd bc a6 a0 82 3d 22 b8 98 bd
       -0.07945653 -0.027082488 0.063782975 -0.074569955
000020 6b fc 14 3d 94 02 5f bd 50 21 ef 3b c9 8a 61 bc
       0.036373537 -0.054445818 0.0072976723 -0.013765999
000030 48 95 82 3d aa ab 3f 3b e1 5c 61 3d 85 8c fd 3c
       0.063761294 0.0029246607 0.055020217 0.030950794
000040 d7 06 48 3c d5 0c 9a 3c 35 75 ae 3d 78 47 bc bd
       0.012208662 0.018804947 0.08518449 -0.09193319
000050 1f fb 21 bd f9 78 8a bd 8b 8b c3 3c 86 dd af 3c
       -0.03954613 -0.06761355 0.02387025 0.021467935
000060 6b 43 84 bb bd 3b 5e bc d8 c7 e2 bc e0 5c 99 3d
       -0.004036357 -0.013564047 -0.027683184 0.074884176
000070 72 bf 27 bc d6 14 a9 3d ac 68 41 bd aa 18 ac 3d
       -0.010238515 0.08255927 -0.047218964 0.08403142
000080 e0 61 ab bd 55 53 4f 3d 63 f8 a4 bd af b6 a6 3c
       -0.083682775 0.05061658 -0.080551885 0.020350782
000090 24 bf a2 bd 78 c9 ac bd 05 d3 c9 3d 1b 70 a7 3d
       -0.079466134 -0.084368646 0.09854702 0.08175679
0000a0 71 98 71 3d b2 1f 4a bc c9 3d 81 bd 3f 94 70 bd
       0.05898327 -0.012336658 -0.06310613 -0.05873513
0000b0 02 6e 2c 3c 30 66 46 3d 78 98 fe 3c 6d b7 55 3d
       0.010524275 0.048437297 0.031078562 0.05217688
0000c0 52 e5 57 3d 04 97 54 bd 01 68 f7 3b 07 1e 0b bd
       0.05270893 -0.051901832 0.00755024 -0.033964183
0000d0 cd ec 86 bd 10 50 df 3c a7 17 b2 bd d5 f5 f4 bc
       -0.06588135 0.027259856 -0.086959176 -0.029902378
0000e0 26 85 49 bc eb 53 1e 3c ba 4f 00 3d a9 65 b0 3d
       -0.0122998115 0.009663562 0.031326033 0.0861314
0000f0 77 31 b5 bd 68 09 94 3d c1 fe d3 bc cc cc a5 3c
       -0.08847325 0.072283566 -0.025878312 0.020239256
000100 dc 6a c6 3c fa d7 1a bd d2 43 20 3c b1 c5 0f 3d
       0.024220876 -0.037803628 0.009781795 0.035100643
000110 75 b1 f0 bb 0e 2b 89 bd 2c 1e 91 3d 80 6d 2c bd
       -0.0073453733 -0.06697665 0.07085833 -0.042096615
000120 5c 19 9d bb 2d e3 b3 3d c5 42 5d bc ba 02 61 bd
       -0.004794283 0.08783565 -0.013504689 -0.05493424
000130 b3 62 6d bd c7 82 de 3c a8 6a 48 bd 06 8a 43 bd
       -0.057955455 0.027161969 -0.04892984 -0.04773905
000140 bc b8 07 bd 39 e1 12 3d 26 03 7c 3c 6b 06 77 3d
       -0.03313516 0.03585932 0.01538161 0.060308855
000150 45 b1 15 bd 7c 10 da 3b 52 4b a4 3d 70 b4 ab bd
       -0.03654601 0.006654797 0.08022179 -0.08384025
000160 0b a8 47 bd 0c 21 99 bd b6 b2 39 bd d8 32 1c bd
       -0.048744243 -0.07477006 -0.045336448 -0.038134426
000170 76 06 89 bc 30 d8 53 3d 5c db 61 bd 85 fa f3 3d
       -0.016726714 0.051719844 -0.055140838 0.11913017
000180 f5 56 59 3d 7d 41 fa 3c ab 39 44 3d ab 5b 63 bd
       0.053061444 0.030548805 0.04790656 -0.055507343
000190 f1 ca b5 3d ba b8 f4 bc 8b aa cc bc ea 5c 7c 3d
       0.088765986 -0.02987324 -0.024983665 0.061612047
0001a0 72 6a 2b 3d d8 58 ed bc da 1a c6 bd 62 8b 26 bd
       0.04184956 -0.028973028 -0.0967309 -0.04066027
0001b0 25 86 14 bd d4 9a 7e 3d 73 f1 bc 3d be 69 70 3d
       -0.036260743 0.062159374 0.0922574 0.058694594
0001c0 8c c1 7f 3d f5 6b 07 bd 56 17 87 bd 06 84 db 3c
       0.06244044 -0.03306194 -0.06596248 0.026796352
0001d0 d5 7d c8 bc 53 88 f4 bc 81 e7 56 bd 4c 5b a9 bd
       -0.024474064 -0.02985016 -0.052466873 -0.082693666
0001e0 90 f3 8d 3c c0 42 68 3c 68 27 01 bd 1d 4c fb bc
       0.017328054 0.014176071 -0.03153172 -0.030675942
0001f0 63 64 93 3d 20 8c 4b 3b 57 ef 40 3c ee 4b 7d bd
       0.071968816 0.0031058863 0.011775813 -0.06183999
000200 46 2a b6 3d ac 10 22 bd 59 15 5e 3b f1 76 3f bc
       0.08894782 -0.03956668 0.0033887236 -0.011686073
000210 74 76 4c 3c 62 db ac bd 80 6a 4c bd 0f b9 4d 3d
       0.012479413 -0.084402815 -0.049906254 0.050225314
000220 2e 54 6e 3d 14 1a 1d bc 51 a1 9d 3d 3d 8e 24 3d
       0.05818575 -0.009588737 0.07696784 0.04017471
000230 c4 f2 43 3d 80 85 05 3c 4a 90 57 bd d0 c8 2c 3d
       0.04783894 0.008149505 -0.05262784 0.042183697
000240 d7 a0 a4 bd cd f8 84 3b 5c 7c b0 3c fe 3d 00 3d
       -0.0803849 0.0040579797 0.021543674 0.03130912
000250 9d 49 29 3b 78 4e e5 bc f1 8d 4b 3c b4 ef 2c 3d
       0.002583123 -0.027991518 0.012423978 0.042220786
000260 38 57 28 3d a7 c3 d8 3c 44 10 c2 3d 06 08 82 bd
       0.041098803 0.026460482 0.09475759 -0.063491866
000270 56 e5 00 bd 79 f5 f5 3c e2 5f 5b bd 9d df 56 3d
       -0.03146871 0.030024277 -0.053558238 0.052459348
000280 6a ef b2 3d 1b 63 a5 3d 58 c4 b3 3c 14 b6 61 bd
       0.08737071 0.080755435 0.02194421 -0.055105284
000290 75 16 4e 3d 41 f9 14 3c e8 9f 2f 3d 7b eb 63 3c
       0.050314385 0.00909263 0.042877108 0.013911123
0002a0 13 d9 b2 bd a6 b3 32 bd 76 54 04 bd b1 08 03 bd
       -0.0873281 -0.043628357 -0.03230711 -0.03199071
0002b0 27 d1 8b 3d f8 e4 c1 bc df e7 7b 3d 25 7c 94 3d
       0.06827002 -0.023668751 0.061500426 0.07250241
0002c0 11 18 8b bd 61 17 ce bd 11 8f d7 3d f1 c8 8c 3c
       -0.067917 -0.10063053 0.105253346 0.01718566
0002d0 e0 8d 5d bd 90 1a 81 3b 9d 5a 3c bd e3 7e 08 3d
       -0.05409038 0.003939934 -0.045984853 0.033324134
0002e0 b1 a9 b4 bd 7e 62 b6 bd 94 d4 f8 3c 79 58 bb bd
       -0.088214286 -0.08905505 0.030374803 -0.09147734
0002f0 e1 92 1d bc de a3 d7 3d aa 03 43 bd cb 06 a0 bd
       -0.009617538 0.10529302 -0.047610916 -0.07813796
000300 e9 d6 e5 b8 48 70 77 bd 83 96 ad bc f3 02 7d bd
       -0.00010959601 -0.060409814 -0.021189934 -0.06177039
000310 70 67 ef 3c 19 f3 95 3d 71 2c 8c 3d 53 a7 92 bd
       0.029224128 0.07321758 0.06844414 -0.07160821
000320 59 47 66 3d 43 1e ff bc a2 16 a0 bd 1a 5f 97 bd
       0.056220386 -0.03114236 -0.07816817 -0.07391186
000330 a5 ee 85 3d 77 88 7b bd fd ae 74 bd dd 05 21 3d
       0.065396585 -0.06140944 -0.059737194 0.039312232
000340 c2 4a eb bc 87 fc 2d 3d 81 61 9d bd 4e 09 40 3d
       -0.02872217 0.042477157 -0.07684613 0.046883874
000350 63 69 16 bd 5c 6b e6 3d 8f cd 1c 3d a1 af 4b bc
       -0.0367216 0.11250946 0.038281973 -0.01243201
000360 67 31 08 bd 41 70 4b bd a8 21 8a bb d2 25 58 bd
       -0.03325024 -0.0496676 -0.004215438 -0.052770443
000370 77 8f 0c 3d 94 18 91 bd ee 3a 19 bc 4c 30 cb 3b
       0.034316506 -0.07084766 -0.009352429 0.006200826
000380 97 1a 8d bd 39 5a 16 bd 89 31 b3 bd f7 9f ac 3d
       -0.06889837 -0.036707137 -0.087496825 0.084289484
000390 a1 61 8f 3d 79 09 6e bd 4a a5 3b 3d ea 10 71 3c
       0.07001043 -0.058114503 0.04581193 0.014713505
0003a0 14 5f b7 bd bd f5 8a bd 39 2a 4a bd 97 9f 58 bd
       -0.089536816 -0.06785152 -0.049356673 -0.05288657
0003b0 44 4b 03 3d 52 e0 75 3d 4d a3 16 bb 7c 8d 06 bd
       0.0320542 0.06002838 -0.0022985518 -0.032849774
0003c0 32 da b9 3c d8 7b 9a 3d ec 5d 0a 3d 43 02 40 bd
       0.022687051 0.075431526 0.033780977 -0.046877157
0003d0 d5 bb 40 bd 14 ea 9d bd 01 3d d7 3d 32 70 a5 3d
       -0.04705413 -0.077106625 0.105096824 0.0807804
0003e0 2b 4d 30 3d df f1 69 bc b5 75 10 bd 71 35 64 3c
       0.043042343 -0.014278858 -0.035268504 0.013928757
0003f0 48 ca 74 bc b1 3b be 3d 7d ea 50 bd d7 c9 8d 3d
       -0.014940806 0.09288729 -0.051004875 0.069232635

classifier.3.weight f4 [3, 256]
000000 47 61 a4 bd aa 82 1d be aa 4a d3 bd a8 9c 59 3d
       -0.08026367 -0.15381876 -0.103169754 0.053127915
000010 e9 f4 52 bb f3 f1 25 3e bb 11 22 be 22 1a 90 bc
       -0.0032189435 0.16205578 -0.15827076 -0.017590586
000020 e9 ee e8 bd e7 9b 1c 3e 65 fd af 3b d7 69 0d be
       -0.113736935 0.15293847 0.005370783 -0.13809906
000030 8b 5f a6 bc 66 1d 16 bd 40 38 ff bd 42 be ff 3d
       -0.02030923 -0.03664913 -0.12461901 0.12487461
000040 b8 eb 3c 3d 21 b7 5c 3d 6b be 2d be 94 8a 2e 3d
       0.046123236 0.053885583 -0.1696717 0.042612627
000050 37 9a c5 bc 1e 3b af bd 0d de 97 bd c7 bb 2d 3d
       -0.024121387 -0.085561976 -0.074154 0.042415407
000060 77 2f b5 3c 45 5a be 3c d3 71 42 be 95 22 5e 3e
       0.02211736 0.023236403 -0.18988733 0.2169288
000070 66 40 3d 3e 58 d0 50 be 21 0d 3a bd 29 f7 9e 3c
       0.18481597 -0.20391977 -0.045422677 0.019404965
000080 99 10 e7 bd f2 be 05 be 5b 08 a4 bd 97 7a 1e be
       -0.112824626 -0.13061121 -0.08009406 -0.15476452
000090 a0 03 10 bb 72 94 a1 bc fd 17 13 be 18 1d b8 3d
       -0.0021974817 -0.019724105 -0.1436462 0.08989924
0000a0 d1 88 11 3e 09 d3 1d 3e bf f3 28 bd dd 2d 02 be
       0.14212348 0.15412535 -0.04124808 -0.12712808
0000b0 c6 50 32 3e 3a aa c7 bd 8c 5c a2 3d 05 1c 90 bc
       0.17413625 -0.09749265 0.07927808 -0.017591486
0000c0 3e 6a 07 3e 48 61 03 3d 9c 73 1a 3e 6a 93 89 bd
       0.13224122 0.032075197 0.15083164 -0.0671757
0000d0 e0 02 93 3b a2 d9 58 bd 64 1e f2 bc ce 05 07 be
       0.0044864267 -0.052941926 -0.029555507 -0.13185808
0000e0 29 d9 54 3e 9d fa 36 3d 41 2a 0c bd 70 d5 4b 3e
       0.20785965 0.044672597 -0.034219984 0.19905639
0000f0 dc 6b 9c 3b 01 06 c3 bc 1b 39 d7 bd fc dd a6 bc
       0.0047736 -0.023806574 -0.10508939 -0.020369522
000100 9a e7 f1 bd 5c c0 3b bc 4e 47 20 3d 24 19 fc bd
       -0.118117526 -0.011459436 0.0391305 -0.12309483
000110 ad 9d 10 3e 74 02 67 3d 45 bf 37 bc 5f 41 10 3d
       0.14122649 0.056398824 -0.011215036 0.035218593
000120 d1 08 e2 bd c2 62 e7 bd 1b c9 a8 3c 63 95 9e 3d
       -0.11036838 -0.112981334 0.020603707 0.07743337
000130 31 21 a4 bb 79 00 a2 ba c5 24 51 bc c4 8d fa bc
       -0.0050088395 -0.001235976 -0.012765114 -0.030585177
000140 54 97 12 3d 9e c3 39 be f7 3a 34 3d a3 32 5f bd
       0.03578885 -0.18141028 0.044001546 -0.05449165
000150 89 e1 71 3e 43 2f f7 bd ed 71 0a be b8 c2 4d 3c
       0.23621191 -0.12069561 -0.13520022 0.012558632
000160 f6 11 a9 3d fa dc 68 3c 01 88 06 bd 56 65 10 bd
       0.08255379 0.014212841 -0.032844547 -0.03525289
000170 24 71 3a 3d 34 a2 b3 3c b8 ab 85 3c d7 16 ec 3d
       0.045518056 0.02192793 0.016317233 0.11527794
000180 f8 48 84 3c fe d2 9c 3c 79 9a 18 be 24 b0 1a bd
       0.016148075 0.019143578 -0.14902677 -0.037765637
000190 9d 9a dd 3b 4b 99 1d be da ff 3b 3e a1 2b 67 bd
       0.006762816 -0.15390508 0.18359318 -0.056438092
0001a0 25 6d d5 bd c0 e6 2a bc 41 82 52 3d ab 0e 1f 3e
       -0.10421208 -0.010430992 0.05139375 0.15532939
0001b0 6c 2d 0d 3d e5 fa 3b 3e e3 70 fd bd 61 5a ee bc
       0.034467146 0.18357427 -0.12375047 -0.02909583
0001c0 dd 26 f0 bd ba 0c 87 3d 40 7e fa bd 6d ff 5e bd
       -0.117261626 0.06594224 -0.122311115 -0.05444281
0001d0 e5 c6 cb 3d 13 8f 07 bd dd 83 1b 3d 66 01 6c bd
       0.099500455 -0.03309543 0.03796755 -0.05761852
0001e0 60 a5 4a 3d 5b d6 dc 3d de 72 21 be 41 1c 32 bd
       0.04947412 0.107830726 -0.15766475 -0.043483976
0001f0 bd fb 1d 3e f0 c1 89 3c 01 20 09 3d e3 b7 f0 3d
       0.15428062 0.01681611 0.033477787 0.117538236
000200 17 47 f0 3d 67 4e 44 3d 78 5b 0e be 34 04 2f be
       0.11732309 0.047926333 -0.1390208 -0.17091447
000210 c2 11 26 be d2 ea 0f 3d 5f 5d 38 3d 44 27 90 3b
       -0.16217712 0.03513605 0.04501092 0.004399212
000220 15 56 0d be d3 41 e8 bd 7b 1a 8d 3c 46 86 a5 bd
       -0.13802369 -0.1134068 0.017224541 -0.08082251
000230 30 bf 3f 3e fd b3 68 3d b3 26 80 3c 9e c9 ba 3d
       0.18725276 0.056812275 0.015643453 0.09120487
000240 00 a2 77 bb e5 73 8a bc 30 54 bf 3c 7e 15 04 bd
       -0.0037785769 -0.016900966 0.023355573 -0.03224706
000250 27 38 49 3d f4 fb a7 bc 59 9b 85 3d e2 e9 53 bd
       0.049125817 -0.020505883 0.06523771 -0.05173672
000260 f7 ea 09 bd d6 13 2d 3d 9e 40 49 3e 0b e6 3d bc
       -0.033671346 0.042255245 0.19653556 -0.011590491
000270 ab a8 22 3b 28 00 23 3d f2 7c 54 bc 63 04 3f be
       0.0024819772 0.03979507 -0.012969242 -0.18654017
000280 05 d4 5f 3d 4e 29 8b bd bf b1 12 bd 50 62 05 3d
       0.054645557 -0.067949876 -0.035814043 0.03256446
000290 41 01 59 3e fe d7 db 3c 1a e9 0d be 1d bb 27 bc
       0.21191885 0.026836392 -0.13858452 -0.010237482
0002a0 20 9c 82 3c f2 9c 08 3d 2d 83 e2 3d aa 20 ee 3d
       0.015943587 0.0333528 0.11060176 0.11627324
0002b0 1a 70 53 3e 7e d8 70 3d a4 89 1e 3d cc 13 13 be
       0.20648232 0.058800213 0.038705483 -0.1436302
0002c0 52 09 33 3e 37 5f 44 bd 44 86 44 be a6 51 12 3e
       0.17484024 -0.047942366 -0.19191843 0.14288959
0002d0 98 04 dc bd 77 3b 3e bd e8 c2 80 3d 17 11 fa 3d
       -0.10743064 -0.04644343 0.062871754 0.12210291
0002e0 54 91 00 bd 74 72 70 bb 92 19 3b 3e 5d c0 2f bc
       -0.031388596 -0.0036689313 0.18271473 -0.010727015
0002f0 b4 3e 5b bb be c3 37 3e 50 d2 ba 3c 1e dd 15 be
       -0.0033454122 0.17945763 0.022805363 -0.14635131
000300 b3 d2 10 3e c3 04 96 bd a3 b6 ee 3c 61 1e 51 3e
       0.14142875 -0.07325127 0.029139822 0.20421745
000310 fe 7e 5f bd 27 31 0b 3e ed e9 0f be 7d 3b 7a bd
       -0.05456447 0.13592969 -0.1405408 -0.06109189
000320 bf d7 0e 3e d8 ea 8d ba ac dd e6 bc 5a 38 e8 3c
       0.13949488 -0.0010827435 -0.028181873 0.028347183
000330 7d 08 ab bd b8 b5 4b bc 53 1f 56 3d c4 d8 64 3e
       -0.083512284 -0.012433462 0.052275967 0.22348315
000340 e0 d0 48 bd f9 b7 a7 3c 6f 1a 87 bc 84 6d bb bd
       -0.049027324 0.020473467 -0.016492097 -0.09151748
000350 54 73 e3 ba 1a 56 64 3e 62 d5 4b 3d 88 55 21 bd
       -0.0017353096 0.2229847 0.049764045 -0.03938821
000360 04 ce 22 3d a9 0d 46 bd 43 5c 10 3e 9b 45 0a bd
       0.039747253 -0.04835287 0.14097695 -0.033757787
000370 ee 3b c2 bc 9c 3b e9 3c f5 41 84 bc 96 d2 17 3e
       -0.023710217 0.028470807 -0.016144732 0.14826426
000380 71 09 99 3d 81 9a ca bd f0 4d e8 bc f9 29 63 3d
       0.07472504 -0.098927505 -0.028357476 0.05545995
000390 36 56 1e 3d 5a bc 62 3d f7 32 62 3d e3 13 1f bd
       0.038656436 0.055355407 0.055224385 -0.038837325
0003a0 95 52 d9 3a a6 36 ab bd 89 b2 c4 bd 9f 15 f9 bd
       0.0016580397 -0.08360033 -0.096043654 -0.12162327
0003b0 26 46 e3 3b 20 9d 47 3d d5 9e 34 be f5 e7 46 3e
       0.0069358526 0.04873383 -0.17638715 0.19424422
0003c0 d4 0f e4 3d 20 ee fa bd fc e0 1e bd 2a 90 f0 3d
       0.111358315 -0.1225245 -0.03878878 0.11746247
0003d0 a1 74 0c 3d a2 32 1b bd fa 1a 19 bd e7 f4 3b be
       0.034290913 -0.037890084 -0.037379242 -0.18355142
0003e0 95 7a fb 3d 60 d5 e5 3c 1c b2 7f bd 7d 9c 22 bd
       0.1227924 0.028055847 -0.062425718 -0.03970002
0003f0 60 55 1a 3d 90 01 28 be 09 62 a0 3c 4e 42 71 3d
       0.037679076 -0.16406846 0.019577997 0.058901124

classifier.3.bias f4 [3]
000000 3f e8 ac bd 8b 67 74 3d 4e 82 7a 3d
       -0.08442735 0.05966906 0.061159424
