checkpoints/VAF_best.pt (torch, 150604 bytes, 8 tensors)

net.0.weight f4 [32, 3, 3, 3]
0.23530929 0.26226428 0.06320421 0.24875379 0.038911007 0.112487726 0.03160742 0.22116789
0.26192874 -0.08407863 0.23999095 0.10997156 0.19096328 0.08544803 0.14443146 0.05570093
0.2243488 0.09017916 -0.06014332 0.09290888 -0.04613992 0.003915063 -0.041359194 0.15734266
-0.10566187 -0.043285165 -0.02043001 -0.13379803 0.0026093558 -0.20583725 0.16131678 -0.1745865
0.13935599 0.023333889 -0.0663083 0.12000784 0.015419996 0.14375444 0.009081409 -0.06897759
0.04498205 -0.056778457 0.07699678 0.17332487 0.11830403 -0.09072256 0.10807726 0.03113972
0.09908353 -0.11393593 -0.18442938 -0.06752746 -0.1336134 0.17956914 0.06166694 0.07777087
0.051905017 0.004423421 0.15071784 -0.14348869 0.019917913 -0.12693593 0.05661286 -0.053666256
0.062339906 -0.044604134 0.1739951 -0.108365886 -0.11679436 -0.100339994 0.18369456 0.06665197
0.21243003 -0.14336285 -0.18534243 -0.1209862 -0.11098794 0.086658455 0.09865702 0.18469411
-0.08490441 -0.12091116 0.11302438 -0.067075305 0.12730864 -0.034622163 0.12089671 -0.13901755
-0.086155675 0.06933543 0.045513887 -0.0435673 0.11999549 0.1359035 -0.13390324 -0.09734113
0.18127899 -0.059374113 -0.062999815 -0.19340704 -0.116587006 0.041421976 -0.032292254 -0.1458592
-0.001977163 -0.13837786 -0.1695686 -0.11269146 -0.14177838 -0.09576988 0.21838802 0.062069762
0.0850188 -0.15393528 -0.100864805 -0.03850469 0.055558376 -0.14796972 -0.061417133 -0.09453896
0.020927321 -0.051230855 0.0068566334 -0.11023793 -0.11189291 -0.09217469 -0.05613326 -0.14199722
0.17028789 -0.029546952 0.1742277 0.06837454 -0.15455934 0.14162476 -0.044643775 -0.09444832
-0.17855397 -0.21146587 0.067547195 -0.028439475 0.07426177 -0.1570936 0.1544922 -0.1394821
-0.053932987 0.02160606 0.079446375 0.17190358 0.19302623 -0.15086892 0.051749863 -0.06730837
-0.016619483 -0.165462 0.1564886 -0.16121317 0.12828283 0.0942684 0.06923886 -0.09541385
0.1988994 0.052404005 0.0319616 -0.16070051 0.08779784 -0.025893258 -0.08590954 0.1656499
0.045677125 -0.10920808 -0.105607115 0.0034934785 0.12204563 -0.0367365 -0.1019109 -0.058834754
-0.13885637 0.076272294 0.15041362 -0.18584451 0.06985149 0.12700547 0.05971883 -0.049509805
0.11839247 0.1163585 0.09061956 -0.02300177 -0.047787253 0.024347732 -0.030089376 -0.05980383
0.13263275 0.17619862 -0.017932605 -0.0401112 0.0067753503 -0.012132525 0.054773215 0.06261484
-0.17329594 -0.055864617 0.17855868 0.080479264 -0.001929061 -0.10727926 -0.11420844 -0.15304764
-0.043142606 0.07535522 0.15068726 0.1185487 -0.15462191 -0.09741401 -0.01064105 0.19909331
0.05728772 -0.013043726 0.11057404 -0.07284031 -0.12358076 0.14887948 -0.06846674 -0.018709451
-0.17053442 0.16087276 0.18617709 0.10348517 -0.13640751 -0.19171154 -0.14965229 0.16215985
0.11164698 0.18237583 0.14304273 0.10144134 0.04077663 -0.15326072 -0.17180116 -0.17592444
0.09827525 -0.07534919 -0.018123632 -0.089983866 -0.009906148 -0.10908828 -0.09919615 0.09559272
-0.02722393 0.15305041 -0.026467202 -0.108969495 -0.019584134 -0.07422334 -0.038534053 -0.16268323
00000000: ebf4 703e 8147 863e 3571 813d 50b9 7e3e
00000010: 2661 1f3d f75f e63d c876 013d d679 623e
00000020: 861b 863e 6b31 acbd 30c0 753e c538 e13d
00000030: e18b 433e 60ff ae3d d7e5 133e a926 643d
00000040: b1bb 653e daaf b83d d858 76bd 0347 be3d
00000050: 36fd 3cbd ee49 803b 4268 29bd 6f1e 213e
00000060: 4065 d8bd c94b 31bd d65c a7bc 5a02 09be
00000070: ba01 2b3b 00c7 52be 3a30 253e cec6 32be
00000080: 56b3 0e3e b626 bf3c a5cc 87bd acc6 f53d
00000090: 27a4 7c3c 5d34 133e 31ca 143c 1f44 8dbd
000000a0: 193f 383d 8790 68bd 7db0 9d3d 137c 313e
000000b0: 6249 f23d c0cc b9bd 9c57 dd3d ba18 ff3c
000000c0: 4eec ca3d 3e57 e9bd 0edb 3cbe d64b 8abd
000000d0: f3d1 08be f9e0 373e 7996 7c3d 5546 9f3d
000000e0: 5b9a 543d 58f2 903b c755 1a3e b3ee 12be
000000f0: e42a a33c 7efb 01be e3e2 673d 26d1 5bbd
00000100: 2158 7f3d d3b2 36bd c62b 323e efee ddbd
00000110: e231 efbd 0e7f cdbd 6d1a 3c3e d480 883d
00000120: 4287 593e b6cd 12be 68ca 3dbe 9dc7 f7bd
00000130: a54d e3bd fd79 b13d b10c ca3d 7420 3d3e
00000140: 5de2 adbd 45a0 f7bd 5379 e73d c75e 89bd
00000150: 325d 023e f8cf 0dbd b298 f73d 9e5a 0ebe
00000160: 6372 b0bd bcff 8d3d c56c 3a3d a073 32bd
00000170: 32c0 f53d 492a 0b3e ee1d 09be c95a c7bd
00000180: 33a1 393e 4532 73bd 0c06 81bd 7f0c 46be
00000190: 2bc5 eebd 17aa 293d e244 04bd 1d5c 15be
000001a0: 4a93 01bb edb2 0dbe 64a3 2dbe c8ca e6bd
000001b0: 5a2e 11be 0023 c4bd 1ca1 5f3e dd3c 7e3d
000001c0: 561e ae3d 36a1 1dbe 3592 cebd 18b7 1dbd
000001d0: 2e91 633d 6085 17be 8890 7bbd a49d c1bd
000001e0: c66f ab3c 72d7 51bd 9cad e03b 6dc4 e1bd
000001f0: 1c28 e5bd 15c6 bcbd fdeb 65bd b867 11be
00000200: f35f 2e3e 730c f2bc bf68 323e f307 8c3d
00000210: ce44 1ebe 1506 113e 64dc 36bd 1f6e c1bd
00000220: dad6 36be 828a 58be 2f56 8a3d e7f9 e8bc
00000230: 8e16 983d 25dd 20be 3433 1e3e 65d4 0ebe
00000240: d6e8 5cbd 31ff b03c c8b4 a23d 7e07 303e
00000250: aba8 453e 627d 1abe aaf7 533d f8d8 89bd
00000260: 9525 88bc df6e 29be 8c3e 203e 1115 25be
00000270: 935c 033e ca0f c13d 1acd 8d3d 5668 c3bd
00000280: 49ac 4b3e 95a5 563d 2bea 023d ad8e 24be
00000290: 5bcf b33d 191e d4bc 57f1 afbd 21a0 293e
000002a0: f017 3b3d 7ca8 dfbd 8b48 d8bd d8f2 643b
000002b0: 0ff3 f93d 0379 16bd a9b6 d0bd b6fc 70bd
000002c0: 5d30 0ebe a634 9c3d 0706 1a3e 064e 3ebe
000002d0: 4c0e 8f3d b90d 023e bb9b 743d cbca 4abd
000002e0: c077 f23d 5e4d ee3d bf96 b93d 356e bcbc
000002f0: 91bc 43bd e574 c73c ff7d f6bc dcf4 74bd
00000300: e1d0 073e 696d 343e 66e7 92bc a44b 24bd
00000310: c203 de3b 80c7 46bc e159 603d 363c 803d
00000320: 7e74 31be 4cd2 64bd 16d8 363e 50d2 a43d
00000330: 8cd8 fcba 3bb5 dbbd 1de6 e9bd 85b8 1cbe
00000340: 4db6 30bd d653 9a3d c34d 1a3e a9c9 f23d
00000350: 3555 1ebe ff80 c7bd cc57 2ebc 1edf 4b3e
00000360: 87a6 6a3d 5ab5 55bc a474 e23d 4d2d 95bd
00000370: e917 fdbd dd73 183e 4a38 8cbd 9044 99bc
00000380: 93a0 2ebe d4bb 243e 35a5 3e3e 08f0 d33d
00000390: 69ae 0bbe 0850 44be 733e 19be 3b0d 263e
000003a0: 2ca7 e43d bbc0 3a3e cb79 123e 7ac0 cf3d
000003b0: 6505 273d 61f0 1cbe a5ec 2fbe 8925 34be
000003c0: 8944 c93d ad50 9abd 0378 94bc 7649 b8bd
000003d0: 654d 22bc ad69 dfbd 5a27 cbbd 1ec6 c33d
000003e0: b804 dfbc 3fb9 1c3e bfd1 d8bc 662b dfbd
000003f0: e86e a0bc 6802 98bd e2d5 1dbd 6f96 26be

net.0.bias f4 [32]
-0.12052917 0.21352544 0.2018641 -0.013291058 -0.07352801 -0.13039906 0.024501441 0.22622952
0.006291342 -0.104390286 -0.103306465 -0.06537165 0.03167682 0.013083572 0.1829194 -0.14224628
0.15113248 0.07566857 0.0071545523 0.17776461 0.116995834 0.22939403 0.19115084 -0.13970473
-0.18714702 0.06918624 -0.022482201 -0.06311599 -0.12355411 -0.015576212 0.13476327 0.11668849
00000000: ffd7 f6bd 6aa6 5a3e 76b5 4e3e bdc2 59bc
00000010: da95 96bd 5587 05be 3fb7 c83c b6a8 673e
00000020: 9a27 ce3b 93ca d5bd 5792 d3bd 92e1 85bd
00000030: 8ebf 013d 7a5c 563c 394f 3b3e 02a9 11be
00000040: 79c2 1a3e 20f8 9a3d bc70 ea3b ed07 363e
00000050: 839b ef3d 45e6 6a3e 0cbd 433e c20e 0fbe
00000060: 78a3 3fbe 84b1 8d3d 982c b8bc f542 81bd
00000070: f009 fdbd 5e33 7fbc 62ff 093e 60fa ee3d

net.2.weight f4 [64, 32, 3, 3]
-0.03403212 -0.030941827 -0.025793841 -0.013759123 0.06197798 0.05296879 0.05993533 -0.013197048
0.0076662707 0.104056664 0.029586405 0.064717636 -0.049192034 -0.06892107 -0.05580449 0.08532618
0.07847421 0.04691297 0.09870621 0.016049575 0.02092217 -0.030463614 -0.042030264 0.0024172936
-0.010554388 0.030753458 -0.027573459 0.01136719 0.05620441 -0.003410461 -0.020337531 0.019300524
-0.033887744 -0.0033376766 0.057393856 -0.038679086 -0.02812068 -0.029767787 -0.009135494 -0.035249878
-0.05485902 -0.0012235834 0.0040693423 -0.02035484 -0.057265338 0.28512257 0.29257163 0.28612578
0.17598541 0.23746097 0.21619211 0.22787334 0.1763072 0.2441613 -0.14295202 -0.09373026
0.033104945 0.13804251 0.123754315 -0.009672518 -0.05271256 -0.024113912 0.07879577 0.002769917
-0.04358866 -0.01608645 -0.043191783 0.015274353 0.026244048 0.04222472 -0.015091645 -0.03742134
0.15487507 0.11607603 0.17966175 0.2204557 0.20918591 0.14052874 0.21541445 0.16511534
0.13669406 0.10447029 0.12705074 0.13462831 0.014671704 -0.036302082 0.0315575 0.0939024
-0.007880832 0.025013383 -0.0038262336 0.03177355 0.05289399 -0.03016891 -0.028348882 0.023800567
0.0043345992 -0.034257036 0.041167438 -0.021605534 0.0069379834 0.009226696 0.01573192 -0.0344137
0.061752673 -0.0068462347 -0.024417866 0.027009059 0.0073085423 0.005764431 0.012213172 -0.0569577
-0.072037555 -0.04501028 0.019466262 -0.036226116 -0.038956504 0.11708724 0.07744792 0.1732282
0.25378776 0.35674942 0.3743261 0.18331897 0.077804066 0.15647034 -0.039643284 -0.0044052037
0.08058972 0.06983204 0.06985382 -0.03889097 -0.0039977557 -0.019263556 0.074127495 0.009229132
0.016123334 -0.01698904 -0.03367175 0.018019952 0.014941003 -0.013070544 0.025741357 -0.0032705388
-0.038225625 0.063581735 0.024206877 0.024985312 -0.026655806 -0.0066657546 0.03082995 0.017354136
0.019129232 -0.011053546 0.059923 0.08504512 0.25900745 0.2774504 0.32967082 0.098245226
0.06198939 0.07910046 -0.028269082 -0.060994923 -0.058511637 0.06195394 0.08038921 0.09242518
-0.027690137 0.028495232 -0.031483185 0.07646664 0.08677978 0.0704581 0.012799974 -0.00955287
-0.050395593 0.009360129 -0.02490355 0.01957033 -0.02148161 0.008268324 -0.045186486 0.02132354
-0.0023940913 0.02102297 -0.017371394 -0.051317584 0.016297143 0.07510745 0.09978883 0.07249422
-0.094373144 -0.13620761 -0.027687937 0.033703603 -0.047204103 0.015266784 0.06833286 0.039922867
-0.00586546 0.0192925 -0.035706557 -0.014732271 -0.04947585 0.03569072 -0.04103042 0.07603873
-0.012750192 0.055631153 -0.013486043 -0.008003398 -0.014259541 0.027856754 -0.021879114 -0.06777857
-0.031373356 0.054931 -0.0024569973 0.048419602 -0.016696343 0.05972138 0.0519146 0.032250527
-0.0077384776 -0.051489834 0.003764156 -0.029185133 0.07177728 -0.045705117 0.049340144 0.081414044
0.033118136 0.031983506 0.01966556 0.09455818 0.07985038 0.21344543 0.3518101 0.25791475
0.1001671 0.116419725 0.060448255 -0.042218924 0.020649983 -0.0005594083 0.051344153 -0.018270785
0.03989667 -0.011347625 -0.02912364 -0.04012451 0.025774637 0.0035184766 -0.039436694 0.038135998
00000000: 4465 0bbd b779 fdbc 9b4d d3bc f26d 61bc
00000010: 9fdc 7d3d cdf5 583d c07e 753d 6e38 58bc
00000020: 5735 fb3b a91b d53d 305f f23c ae8a 843d
00000030: 967d 49bd 7d26 8dbd 4093 64bd 7ebf ae3d
00000040: 16b7 a03d d027 403d 7b26 ca3d 667a 833c
00000050: f864 ab3c d48e f9bc ed27 2cbd 756b 1e3b
00000060: 50ec 2cbc adee fb3c bce1 e1bc 733d 3a3c
00000070: 9836 663d 0a82 5fbb e59a a6bc 221c 9e3c
00000080: e0cd 0abd ecbc 5abb d215 6b3d f66d 1ebd
00000090: 575d e6bc 93db f3bc 0aad 15bc 2d62 10bd
000000a0: dab3 60bd a560 a0ba 1e58 853b 32bf a6bc
000000b0: 0f8f 6abd 96fb 913e f3cb 953e 147f 923e
000000c0: 8535 343e f828 733e 7761 5d3e a157 693e
000000d0: e089 343e 6b05 7a3e 0462 12be a7f5 bfbd
000000e0: 0d99 073d 045b 0d3e e772 fd3d 7b79 1ebc
000000f0: 20e9 57bd 8a8a c5bc ad5f a13d 7f87 353b
00000100: 068a 32bd bbc7 83bc dee9 30bd 4841 7a3c
00000110: c2fd d63c d4f3 2c3d f242 77bc 1e47 19bd
00000120: 9297 1e3e 45b9 ed3d 40f9 373e 24bf 613e
00000130: d534 563e c4e6 0f3e 9b95 5c3e ff13 293e
00000140: 87f9 0b3e 85f4 d53d 9719 023e 01dc 093e
00000150: 9661 703c 7eb1 14bd 7042 013d e74f c03d
00000160: 9b1e 01bc dee8 cc3c 8cc1 7abb fb24 023d
00000170: 5ea7 583d ca24 f7bc ea3b e8bc 68f9 c23c
00000180: 4109 8e3b 1b51 0cbd 309f 283d 17fe b0bc
00000190: 0658 e33b 912b 173c 3ae0 803c 61f5 0cbd
000001a0: 5ff0 7c3d 6156 e0bb fa07 c8bc 1a42 dd3c
000001b0: 7f7c ef3b 8de3 bc3b c219 483c 7a4c 69bd
000001c0: 6d88 93bd b35c 38bd b677 9f3c d661 14bd
000001d0: db90 1fbd 6fcb ef3d 049d 9e3d bc62 313e
000001e0: 78f0 813e dca7 b63e aca7 bf3e f8b7 3b3e
000001f0: bd57 9f3d c339 203e ff60 22bd 8759 90bb
00000200: 390c a53d 1a04 8f3d 850f 8f3d 234c 1fbd
00000210: 9bff 82bb 9bce 9dbc 28d0 973d c935 173c
00000220: 1515 843c 992c 8bbc 64eb 09bd 949e 933c
00000230: 1ccb 743c d625 56bc 8adf d23c 8956 56bb
00000240: 7992 1cbd 2437 823d 804d c63c ffad cc3c
00000250: 475d dabc 676c dabb 178f fc3c 432a 8e3c
00000260: e8b4 9c3c ef19 35bc d271 753d 232c ae3d
00000270: a09c 843e fb0d 8e3e 9dca a83e cb34 c93d
00000280: 96e8 7d3d 6cff a13d 9094 e7bc d0d5 79bd
00000290: e6a9 6fbd 6ac3 7d3d 19a3 a43d 6a49 bd3d
000002a0: 6dd6 e2bc d56e e93c 83f4 00bd 8b9a 9c3d
000002b0: 99b9 b13d 564c 903d fbb6 513c a483 1cbc
000002c0: 9c6b 4ebd 3a5b 193c 8802 ccbc f551 a03c
000002d0: 34fa afbc dd77 073c 7715 39bd b4ae ae3c
000002e0: 30e6 1cbb 5d38 ac3c 744e 8ebc 6332 52bd
000002f0: 9681 853c efd1 993d 165e cc3d da77 943d
00000300: b546 c1bd 027a 0bbe d0d1 e2bc ca0c 0a3d
00000310: 1759 41bd 8821 7a3c 19f2 8b3d 2986 233d
00000320: 0b33 c0bb 4e0b 9e3c 0a41 12bd a05f 71bc
00000330: 30a7 4abd 6f30 123d 840f 28bd 32ba 9b3d
00000340: 2ee6 50bc 7edd 633d 90f4 5cbc af20 03bc
00000350: daa0 69bc d933 e43c d43b b3bc 7ecf 8abd
00000360: 5981 00bd 54ff 603d 9305 21bb a253 463d
00000370: c5c6 88bc 689e 743d 67a4 543d 2119 043d
00000380: 0e93 fdbb 01e7 52bd 0fb0 763b a915 efbc
00000390: f7ff 923d 4a35 3bbd e418 4a3d 68bc a63d
000003a0: e2a6 073d 2301 033d ab19 a13c b8a7 c13d
000003b0: 9988 a33d 7091 5a3e 7420 b43e 670d 843e
000003c0: 6924 cd3d 776d ee3d 9798 773d c0ed 2cbd
000003d0: 272a a93c 41a5 12ba 3f4e 523d 9dac 95bc
000003e0: b16a 233d 64eb 39bc b394 eebc 9959 24bd
000003f0: 5525 d33c 3e96 663b 5f88 21bd 7e34 1c3d

net.2.bias f4 [64]
-0.076117314 -0.07085081 -0.024324765 -0.06277631 0.02168052 -0.023436332 0.011160655 0.002808496
0.07842119 0.06840962 0.03106191 0.063413806 0.056323357 0.0047122627 0.052812453 0.05039541
-0.076377675 -0.056979902 0.10429856 -0.03718162 0.09001506 0.0824375 0.01173416 -0.10058832
-0.029763393 -0.019193761 0.05118062 0.014068246 0.10846694 0.009201115 -0.07855105 -0.019996617
-0.039428547 0.07731892 -0.06880305 -0.0039905664 0.0012180335 -0.011612427 0.088954 0.021173095
0.07269856 0.056979973 0.014237883 -0.025397334 -0.012754392 -0.012875128 -0.072027005 0.008598398
0.0071621803 -0.031266514 0.07899759 0.031648222 -0.031825244 -0.036162503 -0.053759206 0.11625924
-0.016293118 0.09389218 0.06982745 0.026569702 -0.07205523 0.0005270104 -0.022567457 0.03833516
00000000: 65e3 9bbd 3b1a 91bd bb44 c7bc de90 80bd
00000010: 599b b13c 8dfd bfbc 2edb 363c be0e 383b
00000020: 4a9b a03d 581a 8c3d 8c75 fe3c 19df 813d
00000030: 52b3 663d 5369 9a3b df51 583d 6b6b 4e3d
00000040: e66b 9cbd c263 69bd 7c9a d53d c14b 18bd
00000050: d159 b83d fed4 a83d a240 403c 4001 cebd
00000060: 5cd2 f3bc 3c3c 9dbc c5a2 513d 807e 663c
00000070: ea23 de3d 46c0 163c 5fdf a0bd f2cf a3bc
00000080: d47f 21bd 6259 9e3d 9de8 8cbd 4cc3 82bb
00000090: 6ca6 9f3a 0d42 3ebc 842d b63d 3373 ad3c
000000a0: fce2 943d d563 693d 0246 693c 120e d0bc
000000b0: ccf7 50bc 33f2 52bc e582 93bd 4ce0 0c3c
000000c0: b9b0 ea3b 5111 00bd 7dc9 a13d 91a1 013d
000000d0: 305b 02bd 221f 14bd 9d32 5cbd 5319 ee3d
000000e0: 2579 85bc 8b4a c03d b201 8f3d b4a8 d93c
000000f0: b191 93bd 1227 0a3a 63df b8bc 5405 1d3d

net.6.weight f4 [256, 64]
-0.096305236 0.09421303 -0.042441666 -0.048194814 -0.079337366 0.027491177 -0.09838644 0.106073074
0.0902947 -0.09666766 -0.116297625 0.031063562 -0.07581747 -0.12551497 0.07687792 -0.033036727
0.024259627 0.011765859 -0.07959528 -0.06292205 0.041853946 -0.11180269 -0.018769905 -0.0125999255
-0.07090888 0.121941194 -0.1123721 -0.10873782 -0.091973685 0.06928225 -0.10800883 0.07429723
0.12092417 0.11572042 0.11489347 0.018708678 -0.110903636 0.029008454 0.049862057 -0.010803172
-0.11112554 0.09270237 0.022483427 0.082604684 -0.015467454 -0.11333221 0.10484757 -0.12358571
-0.090893544 0.112654895 -0.037579935 0.0662884 0.07496547 -0.016283076 -0.026738228 0.05394213
-0.026970018 0.05008398 -0.04120766 -0.070177294 -0.080558516 -0.1258543 -0.03954517 -0.05868193
0.08551881 -0.021390868 -0.07473557 -0.00045947902 -0.14962332 -0.036362458 -0.045523696 0.0911137
-0.004953 -0.16915137 0.022094365 0.112360895 -0.096745044 0.059286904 -0.0047301007 -0.108928345
0.03453875 0.013438975 -0.045121595 -0.09161645 0.10554468 -0.06806798 -0.014481614 -0.0012671268
-0.04620854 0.10097951 -0.008598654 -0.09565373 -0.24014996 -0.026067046 -0.09838711 0.10750398
0.15238999 0.121959135 -0.073566906 -0.06115798 0.09522147 -0.019252267 0.043042697 -0.10809294
-0.014592835 -0.21683261 0.12453643 -0.025560966 -0.058814958 0.071492665 -0.0725909 -0.00571259
0.08970472 0.11147812 0.09522082 -0.066824205 0.025401756 -0.037096307 0.10814376 -0.19358796
-0.16084523 -0.1632282 0.0925695 0.051352166 -0.008386547 0.1849728 0.0009916228 0.043550897
0.08785022 -0.0006658968 0.027838519 0.068964645 0.002294473 -0.07310329 -0.0073436173 -0.02456225
-0.032454323 0.10131935 0.089095145 -0.12562625 -0.066668116 -0.01264289 0.0733548 -0.042265132
-0.014879277 -0.02604977 -0.09787092 -0.105819315 -0.109413266 0.007208371 0.05920493 -0.00032195327
0.120253004 -0.020300405 0.07715169 -0.02318455 -0.073121175 0.0130317025 -0.12188124 0.0449928
0.026073296 0.038583986 0.05944959 0.092675686 -0.09303456 -0.118258834 0.005552201 -0.0698986
-0.011785144 0.1028414 0.0047939685 0.011206429 -0.11286339 0.002187221 -0.09716955 -0.035488863
0.06963925 -0.014822238 0.05205375 0.02464814 0.082839906 0.040591463 -0.106235825 -0.013979746
0.009484158 -0.071812846 -0.112256765 -0.09913811 0.06309725 -0.049329896 -0.016430566 0.026236827
0.36475 0.09350153 0.076760575 0.3559842 -0.0066269767 -0.019405987 0.011631063 -0.03921021
0.07858571 -0.14689115 -0.104312256 0.06465574 -0.11615824 0.08996659 -0.061187435 0.0104710795
0.14487071 0.078232445 -0.12343839 0.08642507 -0.025197672 -0.04824296 -0.1151913 -0.030559262
-0.005265635 0.10308344 -0.11078905 -0.1278823 -0.09738665 0.08062297 -0.08424397 -0.12911348
0.017533923 -0.16236661 0.11272466 -0.03290776 0.096455425 -0.056700494 -0.13518168 -0.10549351
-0.02216359 -0.062594704 0.1124362 -0.10630559 -0.1310776 0.073971786 0.00032024374 0.06699719
0.00032783908 0.33256748 0.094427474 -0.046209164 -0.03416273 -0.038915075 2.6571388e-05 -0.10974021
0.124495424 0.0073573585 -0.069961704 0.06777154 0.08606168 0.2947047 0.086408906 -0.0021117716
00000000: ae3b c5bd c3f2 c03d 50d7 2dbd ed67 45bd
00000010: a17b a2bd 2d35 e13c d47e c9bd d73c d93d
00000020: 6dec b83d b2f9 c5bd 732d eebd 0379 fe3c
00000030: 3146 9bbd ff86 00be 2c72 9d3d 8551 07bd
00000040: 20bc c63c 97c5 403c da02 a3bd 47dd 80bd
00000050: 0b6f 2b3d cff8 e4bd 58c3 99bc eb6f 4ebc
00000060: ad38 91bd 4ebc f93d 5823 e6bd efb1 debd
00000070: b35c bcbd dae3 8d3d bc33 ddbd 2529 983d
00000080: 17a7 f73d d4fe ec3d 454d eb3d f142 993c
00000090: 7221 e3bd 23a3 ed3c 283c 4c3d caff 30bc
000000a0: ca95 e3bd bdda bd3d 2a2f b83c a52c a93d
000000b0: 346b 7dbc b81a e8bd 53ba d63d 811a fdbd
000000c0: 6526 babd 9cb7 e63d 6bed 19bd 36c2 873d
000000d0: 7f87 993d 1664 85bc 210a dbbc 6cf2 5c3d
000000e0: 3af0 dcbc dc24 4d3d 5dc9 28bd 1db9 8fbd
000000f0: ddfb a4bd f3df 00be 1efa 21bd 775c 70bd
00000100: 7c24 af3d e73b afbc f60e 99bd 3be6 f0b9
00000110: db36 19be cdf0 14bd 0e77 3abd d299 ba3d
00000120: c74c a2bb 0436 2dbe 3eff b43c 781d e63d
00000130: 4422 c6bd d3d6 723d f6fe 9abb d315 dfbd
00000140: 8178 0d3d 262f 5c3c 6cd1 38bd 68a1 bbbd
00000150: cf27 d83d 3a67 8bbd 4b44 6dbc b815 a6ba
00000160: 2b45 3dbd 58ce ce3d 5ee1 0cbc 1ae6 c3bd
00000170: dfe9 75be 8f8a d5bc 2e7f c9bd 0c2b dc3d
00000180: 1f0c 1c3e b6c5 f93d 3faa 96bd ca80 7abd
00000190: 7903 c33d eeb6 9dbc 8a4d 303d d55f ddbd
000001a0: c916 6fbc 5e09 5ebe f50c ff3d 3b65 d1bc
000001b0: f4e7 70bd bf6a 923d 8aaa 94bd ae30 bbbb
000001c0: 1cb7 b73d a44e e43d 2203 c33d 21db 88bd
000001d0: 5817 d03c 4cf2 17bd 7a7a dd3d ec3b 46be
000001e0: 9db4 24be 4b25 27be 1495 bd3d a656 523d
000001f0: ba67 09bc 8269 3d3e 57f9 813a 6d62 323d
00000200: d1ea b33d 948f 2eba 9b0d e43c 563d 8d3d
00000210: de5e 163b 2db7 95bd baa2 f0bb c636 c9bc
00000220: d3ee 04bd 8580 cf3d 8477 b63d 2ba4 00be
00000230: 4b89 88bd 2024 4fbc 0b3b 963d 341e 2dbd
00000240: 36c8 73bc 5466 d5bc 8d70 c8bd ccb7 d8bd
00000250: 1014 e0bd 3334 ec3b de80 723d d6cb a8b9
00000260: 3547 f63d 094d a6bc b501 9e3d 87ed bdbc
00000270: 8ec0 95bd ec82 553c df9c f9bd 5f4a 383d
00000280: aa97 d53c 3e0a 1e3d 6a81 733d c0cc bd3d
00000290: e788 bebd b031 f2bd 3def b53b ff26 8fbd
000002a0: 7a16 41bc 839e d23d b916 9d3b 2c9b 373c
000002b0: ec24 e7bd 7b57 0f3b d400 c7bd c55c 11bd
000002c0: 069f 8e3d f9d8 72bc 5036 553d e5ea c93c
000002d0: f8a7 a93d 3c43 263d 2b92 d9bd 4e0b 65bc
000002e0: 7163 1b3c 9d12 93bd e0e6 e5bd ec08 cbbd
000002f0: 2239 813d 250e 4abd 6599 86bc 9dee d63c
00000300: 83c0 ba3e bb7d bf3d a634 9d3d 9043 b63e
00000310: 1c27 d9bb 4ef9 9ebc 3790 3e3c e39a 20bd
00000320: 8bf1 a03d a26a 16be aaa1 d5bd 3b6a 843d
00000330: 5fe4 edbd 6740 b83d ad9f 7abd e48e 2b3c
00000340: fd58 143e 5538 a03d 44cd fcbd a1ff b03d
00000350: 596b cebc 699a 45bd 6be9 ebbd 6b57 fabc
00000360: 598b acbb 691d d33d 5fe5 e2bd 94f3 02be
00000370: a772 c7bd a81d a53d 1a88 acbd 5336 04be
00000380: 4da3 8f3c 6f43 26be 30dc e63d 4aca 06bd
00000390: 6c8a c53d c73e 68bd 116d 0abe fb0c d8bd
000003a0: 6b90 b5bc a731 80bd f344 e63d bfb6 d9bd
000003b0: 3539 06be 857e 973d 63e6 a739 d335 893d
000003c0: d1e1 ab39 4946 aa3e 3163 c13d d245 3dbd
000003d0: 38ee 0bbd 6a65 1fbd 9fe5 de37 7abf e0bd
000003e0: 75f7 fe3d ff15 f13b 1548 8fbd cecb 8a3d
000003f0: 1b41 b03d 89e3 963e 27f7 b03d a665 0abb

net.6.bias f4 [256]
0.09624931 0.1537185 0.07582708 -0.04724816 0.038309272 0.07110353 0.08775902 0.101073645
0.10496699 0.093994096 -0.087661006 -0.0995848 0.17447546 0.0024728528 -0.118321225 -0.0072346274
0.07824115 0.027734686 -0.02104751 -0.09710923 -0.05872841 0.085749134 0.024006978 0.055646025
0.0033159782 0.00017571272 -0.042095926 -0.068137765 -0.06977324 0.057854984 -0.03304872 0.02845428
-0.00329057 -0.07887091 -0.059535492 0.06861569 -0.047774483 0.121146165 0.018602815 0.07363994
-0.08229122 0.10290682 0.0008418915 0.04600271 -0.104166955 -0.043844864 0.10700967 0.084223606
-0.085951984 0.09352595 0.05057777 -0.095136344 -0.0733361 -0.005198577 -0.11249338 -0.0054078843
0.10028399 -0.12277172 -0.11884055 -0.051502075 0.103514165 0.094141394 0.11725789 -0.05834123
-0.123520255 -0.065594465 0.1377231 -0.052071683 0.004571791 -0.03422892 0.025367765 -0.005355514
-0.1252241 -0.12906358 -0.104715504 -0.02547078 0.019768493 0.07068005 0.008649157 0.03851316
-0.08192284 -0.05789085 0.0062020845 -0.049521472 -0.08960691 0.13018285 0.0048401295 -0.014990041
0.023811227 -0.12062887 -0.06570748 -0.009124122 -0.054549433 0.14574562 -0.02000233 0.06893235
-0.13175401 -0.05168499 -0.017884675 0.07555069 0.12370213 0.05807741 -0.11695379 0.07067016
0.16059291 0.030969504 -0.069658436 0.0008266248 -0.0876992 -0.102012485 0.0013950537 0.09795029
0.1459061 0.03378205 0.0021339357 -0.040742554 -0.08209498 -0.090320766 0.09380766 0.043758754
0.0009807409 0.02915198 0.02819969 -0.07769442 0.114104144 0.15673131 -0.11108065 -0.07679792
-0.05788134 0.021431686 -0.05274369 0.16057228 -0.027599487 -0.08140801 -0.059193738 0.12375923
0.11844338 0.02837734 -0.08127792 0.01033279 0.0779652 -0.021004647 -0.06811104 0.07481106
0.10012621 -0.0006629898 -0.042972475 0.11175141 -0.120464504 0.051374912 0.093965605 0.0738657
-0.15521199 0.11065675 0.11846335 0.14449638 0.07290239 -0.11656606 0.046162087 -0.11238153
-0.12062002 -0.042771656 0.1002859 -0.10617424 -0.086918235 -0.07980654 -0.078282 -0.10399694
-0.009852349 -0.081836246 0.09012756 0.14835088 -0.110518046 0.05443064 0.12158344 -0.09809394
-0.096506186 0.056567572 0.08115923 -0.03278389 -0.048200183 -0.014011386 0.08788124 0.004581794
-0.059278186 0.041735966 -0.1082436 -0.074071616 -0.062314745 0.045308754 0.12650886 -0.008414198
-0.11296783 -0.11615073 0.053546503 -0.020813467 -0.09951147 -0.08269164 0.16841038 -0.10573692
0.01874151 0.08490194 -0.019912507 0.08564951 0.110612266 -0.11680424 0.11150021 -0.06362322
0.092172146 0.00022426248 -0.013094387 0.08553738 -0.01315409 -0.042578466 -0.07621065 0.12113749
0.094707504 0.07081789 0.070312686 -0.008265519 -0.0977929 -0.13491367 -0.088729694 0.0027932092
-0.05774082 0.054086994 -0.12560226 -0.12930392 0.054019656 -0.08975336 -0.040750593 0.107809596
-0.0032805756 0.037971973 0.07180513 0.092036486 0.011885884 0.0113182515 -0.039521437 0.071672395
-0.12589166 0.17904171 0.11881568 0.022657521 0.15535073 -0.05594517 0.024992898 -0.08703717
0.07150479 -0.06433488 0.13537185 -0.08470942 -0.006333443 0.12595469 -0.05657719 0.059326686
00000000: 5c1e c53d 6268 1d3e 3a4b 9b3d 4987 41bd
00000010: 2fea 1c3d ba9e 913d 00bb b33d b3ff ce3d
00000020: eff8 d63d fa7f c03d 9d87 b3bd 1ef3 cbbd
00000030: b2a9 323e 960f 223b 6652 f2bd 7410 edbb
00000040: e53c a03d da33 e33c d46b acbc 34e1 c6bd
00000050: 348d 70bd 3e9d af3d 48aa c43c 16ed 633d
00000060: e250 593b 863f 3839 c76c 2cbd d08b 8bbd
00000070: 46e5 8ebd 59f9 6c3d 185e 07bd f318 e93c
00000080: 9ba6 57bb 1287 a1bd 7ddb 73bd 6286 8c3d
00000090: 2daf 43bd 7b1b f83d ee64 983c 89d0 963d
000000a0: 4d88 a8bd d0c0 d23d 62b2 5c3a 566d 3c3d
000000b0: 7c55 d5bd ac96 33bd e327 db3d 6d7d ac3d
000000c0: 9807 b0bd 898a bf3d a32a 4f3d d8d6 c2bd
000000d0: 3d31 96bd d358 aabb ee62 e6bd 9f34 b1bb
000000e0: b161 cd3d bd6f fbbd ad62 f3bd d7f3 52bd
000000f0: 3cff d33d 34cd c03d e824 f03d 37f7 6ebd
00000100: 30f8 fcbd 6456 86bd 4907 0d3e 1e49 55bd
00000110: f6ce 953b a033 0cbd 0fd0 cf3c 4f7d afbb
00000120: bf3a 00be 3e29 04be 1575 d6bd 19a8 d0bc
00000130: 89f1 a13c b4c0 903d 32b5 0d3c fabf 1d3d
00000140: 29c7 a7bd f51e 6dbd db3a cb3b 07d7 4abd
00000150: d483 b7bd a74e 053e f399 9e3b ca98 75bc
00000160: c30f c33c 450c f7bd a591 86bd 577d 15bc
00000170: 3a6f 5fbd 573e 153e eddb a3bc 672c 8d3d
00000180: 86ea 06be a4b3 53bd e282 92bc 52ba 9a3d
00000190: 8b57 fd3d 94e2 6d3d 7885 efbd 84bb 903d
000001a0: 7872 243e c2b3 fd3c 15a9 8ebd dab1 583a
000001b0: a39b b3bd eceb d0bd 3cda b63a 299a c83d
000001c0: 6968 153e 0c5f 0a3d 80d9 0b3b aae1 26bd
000001d0: 6a21 a8bd 18fa b8bd 3b1e c03d 613c 333d
000001e0: 348c 803a 22d0 ee3c 0903 e73c 411e 9fbd
000001f0: 6faf e93d 2c7e 203e 407e e3bd 3a48 9dbd
00000200: fc14 6dbd 8191 af3c c409 58bd 0f6d 243e
00000210: 5218 e2bc 3eb9 a6bd 2275 72bd 7b75 fd3d
00000220: 7192 f23d 9877 e83c 0a75 a6bd dd4a 293c
00000230: 38ac 9f3d f011 acbc cd7d 8bbd 8b36 993d
00000240: f80e cd3d 7ecc 2dba e803 30bd ecdd e43d
00000250: 18b6 f6bd 806e 523d 0a71 c03d e646 973d
00000260: e4ef 1ebe 02a0 e23d ea9c f23d dcf6 133e
00000270: d94d 953d 30ba eebd 7514 3d3d 4a28 e6bd
00000280: a107 f7bd 5531 2fbd b262 cd3d e171 d9bd
00000290: 3002 b2bd 9c71 a3bd 5052 a0bd 59fc d4bd
000002a0: bf6b 21bc c399 a7bd cc94 b83d 4be9 173e
000002b0: 4957 e2bd aaf2 5e3d bd00 f93d 7ae5 c8bd
000002c0: 09a5 c5bd 66b3 673d cf36 a63d 6648 06bd
000002d0: 8e6d 45bd 0390 65bc 14fb b33d e022 963b
000002e0: afcd 72bd 55f3 2a3d d2ae ddbd dcb2 97bd
000002f0: bf3d 7fbd ac95 393d 8a8b 013e b4db 09bc
00000300: ad5b e7bd 6fe0 edbd 9453 5b3d 0181 aabc
00000310: abcc cbbd 3c5a a9bd c573 2c3e 998c d8bd
00000320: cc87 993c 11e1 ad3d 8e1f a3bc 0369 af3d
00000330: af88 e23d 1037 efbd 395a e43d e44c 82bd
00000340: c0c4 bc3d 0028 6b39 d789 56bc 392e af3d
00000350: 4184 57bc c266 2ebd 5414 9cbd ef16 f83d
00000360: 02f6 c13d f808 913d 1900 903d 196c 07bc
00000370: a547 c8bd cf26 0abe eab7 b5bd 460e 373b
00000380: a381 6cbd 538a 5d3d e19d 00be 3f68 04be
00000390: b743 5d3d 9cd0 b7bd 18ea 26bd 47cb dc3d
000003a0: edfe 56bb 8088 1b3d 910e 933d a07d bc3d
000003b0: 03bd 423c 3070 393c 3be1 21bd fac8 923d
000003c0: bee9 00be b656 373e a355 f33d 449c b93c
000003d0: 4314 1f3e c326 65bd e8bd cc3c 8b40 b2bd
000003e0: 1a71 923d 01c2 83bd eb9e 0a3e 227c adbd
000003f0: c588 cfbb 44fa 003e 7cbd 67bd 8a00 733d

net.8.weight f4 [3, 256]
0.0111793205 0.015010658 0.010105815 0.10229142 -0.0059651854 0.0011095641 0.08393661 -0.10850153
0.052006867 0.064876325 -0.04829233 -0.013743207 -0.13744912 0.11696392 -0.04491548 0.054934278
0.08527968 0.014420519 -0.09795943 -0.004396256 0.05926828 0.0742144 0.0050036386 -0.15775153
0.074905455 -0.019191844 0.09318446 0.11556536 0.061373197 0.074302904 -0.03159061 0.13348019
-0.024966057 0.0011889915 0.112539284 0.036585134 -0.13828732 -0.078239836 -0.029787106 -0.016563985
-0.08877814 -0.09732378 -0.009517537 -0.13957201 0.032857582 -0.013152264 -0.064776406 -0.042661935
-0.056202542 -0.018568931 0.060754985 0.046605326 0.046088558 0.09924774 0.005124047 -0.07401247
-0.062066037 0.021427263 0.004014978 0.12864693 -0.026797453 -0.06305261 -0.1308012 0.10275811
0.04301706 0.057565354 -0.07091099 -0.041968986 0.030049087 0.0092021525 -4.4768996e-05 0.07180644
0.07726328 -0.034420293 0.06425661 0.018591098 0.0611424 0.069935605 0.0701387 -0.05368227
0.044969942 0.017471395 0.050568327 0.097498074 0.07267024 -0.14452356 -0.0833066 0.0031587826
-0.117543094 -0.031938836 -0.013979861 -0.01033052 0.08366313 -0.09034821 0.018582152 0.07394381
0.052609365 -0.03127376 -0.07831249 0.046631094 -0.045504328 -0.056172807 0.04842221 -0.027162567
-0.039860606 0.0025848 0.092652366 -0.008942203 0.06644608 0.036115803 -0.08927178 0.02235102
-0.008665428 -0.0068917177 -0.014295481 0.08802584 0.049283538 0.11132303 0.0032090996 0.048113346
0.04233448 -0.10076651 -0.09899818 -0.06535504 -0.07354477 -0.036798876 -0.0019391775 0.04813087
-0.08724004 -0.1054495 0.03134056 -0.063816465 0.039433464 -0.041194513 0.08181743 0.03166298
-0.09998344 -0.0029194504 -0.018392071 0.09476201 -0.113286644 -0.015683413 -0.050669488 0.068721086
-0.019843966 0.09963006 -0.009015568 -0.12443213 -0.031588588 -0.04542479 0.049298473 0.010079417
0.07537004 -0.01969119 -0.02270785 -0.18161395 -0.08674381 0.04506451 -0.01956996 -0.0568254
-0.048945982 -0.015123958 -0.014556953 0.10645085 0.028235959 -0.013899431 0.07298808 -0.054021977
0.008531923 -0.057174418 0.0037368685 -0.17584157 0.060360856 0.014837882 -0.022449983 0.112240486
-0.014591889 -0.02548386 0.0013704557 0.012241898 -0.120393544 -0.017075535 -0.12705725 -0.046022415
0.119982 -0.0013726173 0.040223308 -0.051372647 0.059430834 -0.04112388 -0.08163401 -0.0095353685
0.04720866 0.10911461 -0.052768357 0.097269125 -0.0017536588 0.06926947 -0.15557703 0.14397304
0.044541333 0.10262281 0.008983665 0.024622163 -0.09384316 -0.047679678 0.034818623 -0.107242025
-0.09542609 -0.044244356 0.07814273 0.07182053 -0.08273544 -0.030535212 0.031553395 -0.07778044
-0.043666985 -0.05881438 0.0029191102 -0.008443202 0.09537064 0.11672627 0.048777245 -0.10866837
0.013795537 -0.07023206 -0.024760012 0.06611369 0.03825338 0.029621363 0.06291055 -0.14900686
-0.15451695 0.042549945 0.03346909 -0.077218555 0.044908192 -0.07608142 -0.0348319 0.025318705
0.09955126 -0.17438878 -0.1525852 -0.020501126 -0.14227074 -0.09005395 -0.034098934 -0.0025981031
-0.011732926 0.07838749 -0.09278299 -0.026038371 -0.15398727 0.01688131 -0.07097234 -0.17084025
00000000: 7829 373c 43ef 753c dc92 253c 2a7e d13d
00000010: 9a77 c3bb cb6e 913a f5e6 ab3d 0d36 debd
00000020: 2705 553d e1dd 843d 2ece 45bd 302b 61bc
00000030: 76bf 0cbe c88a ef3d 4bf9 37bd c402 613d
00000040: 1da7 ae3d 0a44 6c3c f49e c8bd 780e 90bb
00000050: 4cc3 723d b8fd 973d 90f5 a33b 9e89 21be
00000060: 0868 993d 3738 9dbc 7fd7 be3d 88ad ec3d
00000070: 7662 7b3d 1f2c 983d 2865 01bd 08af 083e
00000080: 9e85 ccbc efd7 9b3a ff7a e63d 4bda 153d
00000090: 319b 0dbe 353c a0bd 1704 f4bc 32b1 87bc
000000a0: 50d1 b5bd b151 c7bd 72ef 1bbc f7eb 0ebe
000000b0: ac95 063d 987c 57bc 7ea9 84bd 48be 2ebd
000000c0: a334 66bd df1d 98bc 38da 783d 3ae5 3e3d
000000d0: 5bc7 3c3d 6642 cb3d 9fe7 a73b da93 97bd
000000e0: f538 7ebd 3a88 af3c 1490 833b 05bc 033e
000000f0: 5586 dbbc ba21 81bd c0f0 05be d872 d23d
00000100: a832 303d a6c9 6b3d c839 91bd ace7 2bbd
00000110: 8129 f63c a0c4 163c 58c6 3bb8 410f 933d
00000120: 363c 9e3d 4bfc 0cbd f898 833d 5c4c 983c
00000130: 7470 7a3d 663a 8f3d e1a4 8f3d f1e1 5bbd
00000140: 6732 383d 2c20 8f3c bc20 4f3d 12ad c73d
00000150: 23d4 943d fcfd 13be a79c aabd 9403 4f3b
00000160: 6fba f0bd 4cd2 02bd c90b 65bc 5741 29bc
00000170: 9357 ab3d 7b08 b9bd 9939 983c da6f 973d
00000180: eb7c 573d ea18 00bd 4c62 a0bd 3f00 3f3d
00000190: bf62 3abd 7515 66bd 5e56 463d 0884 debc
000001a0: e044 23bd bf65 293b 86c0 bd3d 5182 12bc
000001b0: e214 883d 2aee 133d 1fd4 b6bd 7c19 b73c
000001c0: 70f9 0dbc ebd3 e1bb 9837 6abc e446 b43d
000001d0: 89dd 493d 54fd e33d c24f 523b 8012 453d
000001e0: eb66 2d3d ac5e cebd 8fbf cabd ddd8 85bd
000001f0: a49e 96bd 6bba 16bd 002c feba e024 453d
00000200: e8aa b2bd e8f5 d7bd f65e 003d 35b2 82bd
00000210: fc84 213d 94bb 28bd e68f a73d 0ab1 013d
00000220: 1ec4 ccbd 4054 3fbb f8aa 96bc 9612 c23d
00000230: d402 e8bd 807a 80bc cf8a 4fbd a4bd 8c3d
00000240: d08f a2bc d80a cc3d 08b6 13bc 46d6 febd
00000250: 0963 01bd 580f 3abd 32ed 493d 2424 253c
00000260: 9c5b 9a3d 6b4f a1bc d005 babc 02f9 39be
00000270: bda6 b1bd 9095 383d 2e51 a0bc c0c1 68bd
00000280: 957b 48bd 7aca 77bc 4980 6ebc e702 da3d
00000290: 194f e73c 70ba 63bc c67a 953d 2646 5dbd
000002a0: 7bc9 0b3c b92f 6abd 40e6 743b d00f 34be
000002b0: f23c 773d 961a 733c 07e9 b7bc 57de e53d
000002c0: d212 6fbc 87c3 d0bc dda0 b33a 3e92 483c
000002d0: e490 f6bd fee1 8bbc 4c1b 02be 0082 3cbd
000002e0: 1fb9 f53d 65e9 b3ba 32c1 243d 206c 52bd
000002f0: bf6d 733d 8371 28bd bb2f a7bd 3c3a 1cbc
00000300: de5d 413d 7b77 df3d a223 58bd 0935 c73d
00000310: 06db e5ba 27dd 8d3d 964f 1fbe ab6d 133e
00000320: f970 363d e82b d23d 3930 133c 6bb4 c93c
00000330: d830 c0bd c44b 43bd f99d 0e3d b5a1 dbbd
00000340: c16e c3bd 9239 35bd 4c09 a03d a416 933d
00000350: 3371 a9bd fb24 fabc 223e 013d 5a4b 9fbd
00000360: 27dc 32bd 59e7 70bd 8b4e 3f3b 5b55 0abc
00000370: af51 c33d 2f0e ef3d a6ca 473d 868d debd
00000380: ad06 623c d4d5 8fbd 82d5 cabc 9d66 873d
00000390: 94af 1c3d 80a8 f23c 3fd7 803d 4195 18be
000003a0: b139 1ebe da48 2e3d e216 093d c324 9ebd
000003b0: a7f1 373d 93d0 9bbd e5ab 0ebd 2c69 cf3c
000003c0: 88e1 cb3d f992 32be 4b3f 1cbe faf1 a7bc
000003d0: 6caf 11be 356e b8bd 53ab 0bbd f044 2abb
000003e0: 753b 40bc 9f89 a03d 0205 bebd 6c4e d5bc
000003f0: d7ae 1dbe ac4a 8a3c f259 91bd bff0 2ebe

net.8.bias f4 [3]
-0.0666655 0.009673817 -0.004749157
00000000: ec87 88bd ee7e 1e3c d19e 9bbb
